Task/Task2-AllNew/CNN_Net3.pth (torch, 480169 bytes, 18 tensors)

conv1.weight f4 [4, 2, 5]
0.7115955 0.49292147 0.3911421 -0.10190581 -0.1962347 -0.544728 -0.5166451 0.6752292
1.4967377 0.16757695 -0.20951149 -0.33632702 0.6075559 0.85744333 0.6100888 0.5258696
0.45865452 0.74549955 -0.25031665 -0.7319104 0.86702347 0.55346185 -0.09299467 -0.648723
-0.22530426 -0.85513747 -0.79042345 -0.0762144 -0.13797373 0.41861886 -0.30630147 0.2865917
0.1562364 0.37777176 0.9223524 0.12646832 1.7254864 0.92716503 -0.25792 -0.43543664
00000000: 1f2b 363f 3460 fc3e c743 c83e feb3 d0bd
00000010: c0f1 48be 4b73 0bbf da42 04bf d2db 2c3f
00000020: 1a95 bf3f 4b99 2b3e 2e8a 56be 0e33 acbe
00000030: c988 1b3f 6881 5b3f c82e 1c3f 649f 063f
00000040: c4d4 ea3e 0fd9 3e3f 8129 80be 7b5e 3bbf
00000050: 40f5 5d3f adaf 0d3f fd73 bebd b612 26bf
00000060: 29b6 66be 4aea 5abf 3159 4abf 4c16 9cbd
00000070: fc48 0dbe 3655 d63e 8cd3 9cbe 26bc 923e
00000080: 6ffc 1f3e 4d6b c13e 491f 6c3f e980 013e
00000090: bddc dc3f b05a 6d3f 170e 84be 8df1 debe

conv1.bias f4 [4]
-0.050450772 0.275701 0.19756012 0.1793433
00000000: 78a5 4ebd ae28 8d3e 334d 4a3e c5a5 373e

bn1.weight f4 [4]
1.9585737 1.7027627 0.592126 1.5481389
00000000: 8bb2 fa3f 21f4 d93f 9295 173f 6a29 c63f

bn1.bias f4 [4]
-0.07556044 -0.18047832 0.105307765 -0.10035962
00000000: 6fbf 9abd 4fcf 38be 99ab d73d 5889 cdbd

bn1.running_mean f4 [4]
241.42172 211.63327 -97.7156 331.54022
00000000: f66b 7143 1ea2 5343 636e c3c2 26c5 a543

bn1.running_var f4 [4]
2980.4753 2359.462 1162.0294 4804.964
00000000: 9b47 3a45 6477 1345 f140 9144 b627 9645

conv2.weight f4 [8, 4, 5]
0.693962 0.26336607 -0.45050335 -0.45096585 0.17428356 -1.0840602 0.47434482 -0.9304618
-0.16120839 0.9842908 -0.95931995 0.6675348 0.609751 0.6853923 -0.064732075 -0.24228829
0.68699366 0.08586438 0.23017144 0.9805264 0.34954485 1.0104587 0.41275886 -0.79686445
-0.6968233 -0.5567563 0.66321725 -0.24460323 0.22878057 -0.08836127 -0.9766105 0.8943708
-0.27729595 -0.18094848 0.10330308 1.0278077 0.7836935 0.47921053 0.10074913 -0.80673075
-0.04906959 -0.7796597 -1.5350741 -0.4285047 0.8980621 -0.2117375 -0.47311687 0.16274732
-0.5973449 0.016658612 0.6344317 0.54263073 0.4858172 0.6241474 0.21261275 0.9609103
0.98733765 0.63961107 -0.83535415 -0.17287263 -0.16207616 -0.97643656 -0.29206812 0.1366303
1.742758 -0.26114795 -0.4750145 0.027122935 0.11934846 0.44420525 0.20102875 -0.22059685
-0.93578637 -0.16536891 0.17079836 0.8261922 -0.08077902 -0.8003791 -0.9381105 -0.0152393235
-0.03443492 -0.1445175 0.32702136 -0.19518845 0.5396961 1.1556206 -1.0839884 -0.3987172
0.15802191 0.6279003 -0.51351124 -1.1551613 0.39468417 0.13543342 0.39230955 -0.34674937
0.08680378 -0.020152034 -1.9162463 -0.49440336 0.85212106 0.6467559 0.4645659 -0.3500175
-1.4994059 -0.2448394 -1.2763283 -0.09467958 0.21993063 0.22123614 -0.5072329 0.6342589
-0.16998202 0.03566481 -0.15175864 0.72309124 -0.7247419 -0.96414536 -1.377735 -0.15017864
-0.11407862 0.12295881 -0.29940102 -0.80756825 -0.097642675 0.008239836 -1.0014757 -0.37524873
0.6631152 0.71964705 -0.11622131 -2.049094 -0.60361016 0.13120694 -0.19768532 -0.7023692
0.72875965 -0.018600613 0.041729957 0.31203654 -0.43526042 -0.083260596 0.25998852 0.8699637
0.39876866 1.6143702 0.08391147 0.3558919 -0.97670954 -1.1825513 0.6071518 0.49986508
-0.0024067082 -0.08125116 0.20733574 0.09442055 0.5324897 0.11084351 -0.64969623 -0.4620594
00000000: 7ea7 313f ebd7 863e 60a8 e6be ffe4 e6be
00000010: 6477 323e 7cc2 8abf 53dd f23e bf32 6ebf
00000020: d013 25be 7bfa 7b3f fe95 75bf 90e3 2a3f
00000030: a418 1c3f df75 2f3f 4092 84bd 6c1a 78be
00000040: d1de 2f3f aad9 af3d 10b2 6b3e c703 7b3f
00000050: 8bf7 b23e b656 813f 2155 d33e 4fff 4bbf
00000060: 0363 32bf 9587 0ebf 9bc8 293f 4579 7abe
00000070: 7445 6a3e c1f6 b4bd 2503 7abf 7cf5 643f
00000080: bcf9 8dbe 8f4a 39be 9190 d33d 348f 833f
00000090: 23a0 483f 155b f53e 8f55 ce3d e885 4ebf
000000a0: 32fd 48bd c797 47bf 4f7d c4bf f864 dbbe
000000b0: 66e7 653f b7d1 58be 603c f2be 3ca7 263e
000000c0: 98eb 18bf a477 883c 1e6a 223f d9e9 0a3f
000000d0: 08bd f83e 20c8 1f3f 28b7 593e 38fe 753f
000000e0: 29c2 7c3f 8dbd 233f c5d9 55bf 8605 31be
000000f0: 4bf7 25be bff7 79bf f489 95be d0e8 0b3e
00000100: b212 df3f 2fb5 85be 1a35 f3be eb30 de3c
00000110: f76c f43d df6e e33e 7bda 4d3e 24e4 61be
00000120: b28f 6fbf 7856 29be c4e5 2e3e 5581 533f
00000130: 796f a5bd a5e5 4cbf 0228 70bf 5bae 79bc
00000140: a10b 0dbd 65fc 13be 586f a73e 7bdf 47be
00000150: 8629 0a3f 60eb 933f 22c0 8abf a924 ccbe
00000160: 7fd0 213e 13be 203f 7975 03bf 53dc 93bf
00000170: 0b14 ca3e 0faf 0a3e ccdc c83e 2289 b1be
00000180: 2ec6 b13d e115 a5bc 8f47 f5bf 7022 fdbe
00000190: 9b24 5a3f cb91 253f 95db ed3e 7e35 b3be
000001a0: 88ec bfbf 2eb7 7abe ba5e a3bf 5ee7 c1bd
000001b0: 7f35 613e ba8b 623e 04da 01bf cb5e 223f
000001c0: c40f 2ebe 4415 123d 9e66 1bbe 821c 393f
000001d0: af88 39bf 3bd2 76bf 9f59 b0bf 6ec8 19be
000001e0: 0da2 e9bd d4d1 fb3d 174b 99be cbbc 4ebf
000001f0: e2f8 c7bd 6100 073c 5b30 80bf 9a20 c0be
00000200: ebc1 293f ca3a 383f 7005 eebd 5b24 03c0
00000210: 3286 1abf 1d5b 063e 056e 4abe 78ce 33bf
00000220: fe8f 3a3f 5060 98bc 08ed 2a3d 41c3 9f3e
00000230: 74da debe 8884 aabd 371d 853e f1b5 5e3f
00000240: 682b cc3e afa3 ce3f c7d9 ab3d 7737 b63e
00000250: a309 7abf d75d 97bf 4d6e 1b3f 51ee ff3e
00000260: ddb9 1dbb 0267 a6bd d24f 543e 905f c13d
00000270: 3f51 083f ec01 e33d 7e52 26bf 0d93 ecbe

conv2.bias f4 [8]
0.13693002 0.124864995 0.14383025 -0.05142396 -0.10630915 0.11540343 -0.01288577 0.021597587
00000000: 6237 0c3e 38b9 ff3d 3d48 133e eea1 52bd
00000010: 9db8 d9bd a258 ec3d d61e 53bc 6ced b03c

bn2.weight f4 [8]
0.08306794 0.1658387 0.110599205 0.19384402 0.09392343 0.11467771 0.088871226 0.18346897
00000000: 861f aa3d 9fd1 293e d681 e23d 0c7f 463e
00000010: ed5a c03d 26dc ea3d 1e02 b63d 4adf 3b3e

bn2.bias f4 [8]
-0.042089142 -0.08214783 -0.017800462 -0.05928854 -0.034765195 -0.011893862 -0.014939607 -0.030922612
00000000: aa65 2cbd 1f3d a8bd 46d2 91bc 8ad8 72bd
00000010: f365 0ebd 79de 42bc 41c5 74bc 6b51 fdbc

bn2.running_mean f4 [8]
0.9884121 0.8503529 0.041034155 -0.6212868 -1.0005006 -1.3559436 -1.2868366 0.66021895
00000000: 9308 7d3f bab0 593f 6e13 283d a70c 1fbf
00000010: 6710 80bf 8f8f adbf 10b7 a4bf 1c04 293f

bn2.running_var f4 [8]
0.48934826 1.1998456 0.94006294 0.70300025 0.632952 1.417603 1.8136922 1.111307
00000000: db8b fa3e 8a94 993f f7a7 703f d3f7 333f
00000010: 2409 223f 0474 b53f 1127 e83f 4f3f 8e3f

fc1.weight f4 [350, 256]
0.53916293 0.5086098 0.42742047 -0.663652 -0.552991 -1.88012 -2.2251341 -1.8574663
-1.3889035 -0.91949356 -1.0050179 -1.1156054 -1.0039753 -0.8744415 -0.66631204 -0.5685511
-0.56385124 -0.44998607 -0.45172536 -0.45706016 -0.5912652 -0.73923045 -0.64782083 -0.58544344
-0.37072524 -0.36768723 0.07255683 0.07376846 -0.6561867 -0.22458307 0.16040228 0.50126964
0.22055948 -0.9161541 -1.0607201 0.24811019 0.3687253 0.5894418 0.4287046 0.5528715
0.52560765 0.57813275 0.582571 0.5943027 0.71355283 1.083563 0.83192205 0.51192945
-0.20810449 -0.72949684 -0.6686109 -0.6972877 -0.66990507 -0.6382124 -0.4766382 -0.3271782
-0.46533698 -0.7925805 -0.92963374 -0.63181037 0.038023386 -0.6260985 0.2858801 0.6385009
-0.43733218 -0.6783141 -0.36161205 -0.6100485 -0.8964901 -0.21138813 -0.7201303 -1.1315908
-1.7366111 -2.5666125 -2.589893 -1.7028602 -0.7403465 -0.27787435 -0.22964774 -0.39978075
-0.39908987 -0.22106725 -0.21064545 -0.37285438 -0.23569302 0.029993797 0.17756923 -0.14027134
-0.70595235 -1.2450855 -0.99989635 -1.0081865 -1.0721952 -0.70708776 -0.34738582 -0.08026844
-0.847275 0.046161726 -1.4331754 -0.35661182 -0.3722609 -1.6523483 0.4583865 -0.102262355
-0.8446062 -1.1022348 -1.154632 -1.4657257 -1.7178198 -2.0172276 -1.8725663 -1.5040413
-1.1865442 -0.9796011 -0.5728268 -0.24077894 -0.1920409 0.5300768 0.24186125 0.20180483
-0.008678153 -0.50502014 0.08736658 -0.068442374 0.3512778 -0.60022956 -0.3038442 -1.4887173
-0.8432486 -0.14881624 -0.84650886 -0.86074036 0.87809014 -0.24254903 0.027581234 0.17773578
0.033937998 -0.24486409 -0.59193385 -0.6774784 -0.52043015 -0.21835427 -0.031157168 0.1141119
0.3250849 0.5658638 0.55256796 0.46078154 0.5558795 0.6846135 0.7952618 0.9320776
0.78918606 0.68907636 0.15727599 0.26525053 0.20287146 0.021577343 -0.4359068 0.26702428
0.17197613 -1.5766312 -1.1145937 -1.1630096 -0.55249697 -0.5832603 -1.1864983 -2.3216312
-2.1668835 -1.0281438 -0.0042240294 0.5110257 0.418664 0.0974628 -0.2803523 -0.50360787
-0.5893282 -0.30532217 0.007211521 0.2101759 -0.076886326 -0.8001538 -1.6817278 -2.560869
-2.7231646 -2.6395307 -2.3252637 -1.0493708 -0.23814984 0.114054665 0.005322769 -0.106595896
-0.09622396 -0.017915703 -0.31547725 -0.292746 -0.34787023 -0.85541695 -0.7279564 -0.45945668
-0.8203989 -1.3148212 -1.5630311 -1.5537071 -1.4052465 -1.2048521 -0.87347704 -0.8218444
-0.97361624 -1.0151299 -0.9243946 -0.9029433 -0.8601882 -0.7523837 -0.6330128 -0.35245594
-0.19680318 -0.2053361 -0.114804104 -0.013205764 0.049374945 -0.043658853 -0.5727228 0.005506666
-1.0845311 -0.92899895 0.6332094 0.73381114 -0.038656596 -0.27545914 -0.44992566 -0.25999874
0.1432505 0.24107707 0.16588953 -0.028396068 0.081659205 0.5358414 0.9028533 0.9388853
0.7173402 0.4592431 0.39517495 0.043398183 -0.13483687 -0.07627738 0.1131656 0.41997156
0.4352962 0.26570922 0.4575333 0.10896115 0.0817707 0.15401484 0.20910089 0.26092988
00000000: 9506 0a3f 4034 023f dbd6 da3e 19e5 29bf
00000010: d190 0dbf c6a7 f0bf 9968 0ec0 75c1 edbf
00000020: 97c7 b1bf ee63 6bbf 6da4 80bf 28cc 8ebf
00000030: 4382 80bf 66db 5fbf 6d93 2abf 918c 11bf
00000040: 8e58 10bf 9364 e6be 8c48 e7be ca03 eabe
00000050: 285d 17bf 353e 3dbf 96d7 25bf 9fdf 15bf
00000060: b3cf bdbe 8041 bcbe ad98 943d eb13 973d
00000070: dafb 27bf 1bf9 65be 7f40 243e 3553 003f
00000080: 58da 613e 1389 6abf adc5 87bf 9910 7e3e
00000090: 90c9 bc3e a8e5 163f 2b7f db3e fd88 0d3f
000000a0: 398e 063f 8200 143f 6023 153f 3924 183f
000000b0: 66ab 363f 31b2 8a3f d8f8 543f cf0d 033f
000000c0: 5819 55be 4ec0 3abf 152a 2bbf 7281 32bf
000000d0: e67e 2bbf e361 23bf ec09 f4be e783 a7be
000000e0: a640 eebe 8ee6 4abf 7afc 6dbf 53be 21bf
000000f0: 69be 1b3d fe47 20bf e05e 923e cc74 233f
00000100: 01ea dfbe fea5 2dbf 3725 b9be 232c 1cbf
00000110: 6080 65bf 2176 58be 765a 38bf f8d7 90bf
00000120: 4649 debf 6143 24c0 cfc0 25c0 53f7 d9bf
00000130: 5987 3dbf 8c45 8ebe c728 6bbe 10b0 ccbe
00000140: 8255 ccbe 745f 62be 71b3 57be c5e6 bebe
00000150: 8359 71be 8db5 f53c b5d4 353e 4aa3 0fbe
00000160: 4bb9 34bf f65e 9fbf 35f9 7fbf 410c 81bf
00000170: b13d 89bf b403 35bf 8edc b1be c863 a4bd
00000180: 04e7 58bf 1414 3d3d 4b72 b7bf d395 b6be
00000190: fb98 bebe 2680 d3bf a3b1 ea3e ed6e d1bd
000001a0: 1d38 58bf 0816 8dbf fbca 93bf e69c bbbf
000001b0: 85e1 dbbf 421a 01c0 41b0 efbf 6d84 c0bf
000001c0: aee0 97bf 23c7 7abf c7a4 12bf c18e 76be
000001d0: 5fa6 44be 1db3 073f 7aaa 773e eda5 4e3e
000001e0: d02e 0ebc 0049 01bf 40ed b23d 842b 8cbd
000001f0: afda b33e a5a8 19bf 7891 9bbe 4a8e bebf
00000200: 24df 57bf 4963 18be ceb4 58bf 7b59 5cbf
00000210: 84ca 603f c65e 78be 0af2 e13c 5e00 363e
00000220: 9202 0b3d a7bd 7abe fa88 17bf 396f 2dbf
00000230: e93a 05bf 4398 5fbe 513d ffbc 80b3 e93d
00000240: 8771 a63e 73dc 103f 1875 0d3f 8feb eb3e
00000250: 1e4e 0e3f d542 2f3f 4796 4b3f a39c 6e3f
00000260: 1908 4a3f 4f67 303f f50c 213e ebce 873e
00000270: 89bd 4f3e f8c2 b03c 2d2f dfbe 68b7 883e
00000280: 831a 303e 0dcf c9bf 02ab 8ebf 80dd 94bf
00000290: 7170 0dbf 8c50 15bf 2ddf 97bf 9b95 14c0
000002a0: 38ae 0ac0 379a 83bf ba69 8abb 95d2 023f
000002b0: 215b d63e 949a c73d 568a 8fbe 72ec 00bf
000002c0: 37de 16bf 3053 9cbe 9f4e ec3b 5a38 573e
000002d0: 9476 9dbd e1d6 4cbf db42 d7bf 47e5 23c0
000002e0: 5448 2ec0 12ee 28c0 1fd1 14c0 c851 86bf
000002f0: 8ddd 73be 7e95 e93d 9f6a ae3b f34e dabd
00000300: 1111 c5bd f4c3 92bc 3c86 a1be cee2 95be
00000310: 0c1c b2be 9bfc 5abf 5a5b 3abf e83d ebbe
00000320: aa05 52bf 104c a8bf 6711 c8bf e0df c6bf
00000330: 1edf b3bf 9838 9abf 319c 5fbf 6564 52bf
00000340: ea3e 79bf c7ef 81bf 20a5 6cbf 4b27 67bf
00000350: 4b35 5cbf 389c 40bf 200d 22bf 1b75 b4be
00000360: c686 49be a043 52be 6a1e ebbd fd5c 58bc
00000370: 623d 4a3d a0d3 32bd f69d 12bf 4371 b43b
00000380: ead1 8abf e0d2 6dbf 031a 223f 0cdb 3b3f
00000390: 6156 1ebd fb08 8dbe a85c e6be 8e1e 85be
000003a0: 42b0 123e e8dc 763e f2de 293e df9e e8bc
000003b0: f13c a73d e72c 093f 6521 673f c95a 703f
000003c0: 9ba3 373f e921 eb3e 5f54 ca3e 4bc2 313d
000003d0: ad12 0abe 5137 9cbd 5ec3 e73d 8306 d73e
000003e0: 25df de3e 0a0b 883e ce41 ea3e 0627 df3d
000003f0: 6677 a73d 11b6 1d3e 8b1e 563e 9a98 853e

fc1.bias f4 [350]
-0.17693926 0.22816713 -1.2125984 -1.3781534 -1.0715568 -1.5842175 0.30185652 1.2055434
-1.7289243 -0.99203736 -0.80929136 -0.3711728 -1.1109979 -0.6355814 -1.5142107 -1.4702808
-1.6438106 1.1175466 1.0426993 -0.91309744 -0.16965258 -1.17198 -2.3025649 -1.1174717
-0.10193332 0.06779411 -0.6606958 -1.8116114 0.37894034 -1.2628256 0.2909502 0.08330339
-1.5016035 -0.36153537 -0.99268174 -1.1614747 -0.9022657 1.2889411 0.7914679 0.5233867
-1.0734991 -0.23567198 -0.81893945 -1.1388023 0.048585825 -0.34208053 -0.7866944 -0.77237624
0.41507557 -1.2053208 -0.9353952 -1.0522327 -0.35518777 0.9948694 -1.5321164 -0.010042509
-1.2534839 -0.36754745 -0.3238708 0.84755975 0.4136738 0.07953568 -0.53573436 -0.664223
0.110700674 -0.28345037 -1.4042048 -0.5492452 -1.049843 -1.4956723 0.2539005 -1.4932055
-0.21205424 -0.9115742 -0.76848215 -1.009655 -1.2400037 -0.3286725 1.0000716 0.16453715
-0.8197114 -0.3549389 0.7000793 -0.9982377 -1.1377103 1.1614678 0.19546601 -0.42334145
-1.6157334 -0.46592233 0.47547275 -0.34559557 -0.050336093 -0.8154898 -0.9696076 -0.5652547
-1.4367853 0.1226576 -1.2888391 -0.59626865 -1.240643 -0.86737907 1.2979295 -1.5130789
-0.61158544 0.1302599 -0.84368235 -0.50712246 -1.1331613 0.3791594 -0.6597683 -1.3908798
-1.3679165 -0.74453133 0.8464554 0.50122005 -1.7489703 -1.3157542 0.8833496 -1.1637088
-1.6270254 0.06617868 -0.73622787 -1.3921089 0.19446969 -0.087204315 0.78747153 0.75277454
-1.3147961 -0.6738925 -0.733225 -0.040890723 -0.012879304 0.12089702 -0.06665278 0.40013915
0.010878343 -1.4053909 -1.1509626 -1.156509 0.21218564 -1.3413615 0.07674287 0.86789334
0.49867365 -1.4790707 -1.2728918 0.01810436 1.2744563 -1.0312978 0.008650585 0.5767786
-0.6759875 -1.003837 1.0253885 -1.3967645 -1.4114445 0.24276061 -0.99072087 -0.38064188
1.0944453 0.2919471 -0.17765516 -1.1485927 0.1637168 -0.22684945 -0.51474535 -0.4944176
1.0469503 0.53791255 0.28149894 -0.8358054 -1.4957341 -1.3065144 -1.3593836 -0.082335606
0.15958 -0.6443459 -0.11999786 -0.8721433 -1.1375296 -1.1102039 -1.3859781 -0.7452809
-1.2353127 -1.3459772 0.2691589 -1.2228191 -0.26841703 -1.4268373 -0.5671973 -1.0321367
-1.3063715 -0.8055008 -1.1134574 -1.3728197 -1.4698974 -1.0124019 -0.23049374 0.4132635
-0.7133857 -1.5492064 -0.019250844 -0.14042266 -0.6268853 -0.010361854 -0.3105684 -1.063984
-0.47485575 1.1298593 -1.215728 0.22489901 -0.060047034 -1.3885009 -0.15696424 -0.5744147
-1.1110551 0.9303316 -1.0013739 -0.16403529 -1.2114406 -0.13153993 -1.592436 -1.123649
-0.98392993 -1.1082275 0.6115253 -0.34521 0.1875687 -0.9668784 -1.2413071 0.37466055
-0.6676313 0.5925096 -1.1623777 -1.4664758 0.37502578 0.5558344 -1.2383937 -0.34779578
-1.4965593 -0.9018604 0.055074975 0.2836931 -0.15831569 1.2009836 -0.37076688 0.023167938
-0.74477476 -0.92842036 -1.069234 -1.4932503 -1.4101962 0.95866346 0.6325931 -1.5172302
00000000: 912f 35be a5a4 693e 6d36 9bbf 5567 b0bf
00000010: c628 89bf a4c7 cabf f08c 9a3e 3f4f 9a3f
00000020: 644d ddbf 29f6 7dbf b82d 4fbf 5c0a bebe
00000030: 2e35 8ebf 76b5 22bf a8d1 c1bf 2932 bcbf
00000040: 6368 d2bf c40b 8f3f 2c77 853f c1c0 69bf
00000050: 68b9 2dbe 7103 96bf 395d 13c0 5009 8fbf
00000060: 6bc2 d0bd a3d7 8a3d 5c23 29bf e2e2 e7bf
00000070: 7804 c23e 45a4 a1bf 6df7 943e f89a aa3d
00000080: 8b34 c0bf 2a1b b9be 6420 7ebf 34ab 94bf
00000090: e3fa 66bf 06fc a43f a49d 4a3f acfc 053f
000000a0: 6b68 89bf ff53 71be 04a6 51bf 46c4 91bf
000000b0: ee01 473d 2e25 afbe ce64 49bf 73ba 45bf
000000c0: c984 d43e f447 9abf 0f76 6fbf 90af 86bf
000000d0: 2cdb b5be c3af 7e3f 641c c4bf 5689 24bc
000000e0: 2972 a0bf 2e2f bcbe 65d2 a5be adf9 583f
000000f0: 0dcd d33e 9ae3 a23d e325 09bf 850a 2abf
00000100: 09b7 e23d 6820 91be fcbc b3bf 559b 0cbf
00000110: 4161 86bf 3172 bfbf 3fff 813e 5c21 bfbf
00000120: bf24 59be ed5c 69bf 3fbb 44bf 603c 81bf
00000130: 71b8 9ebf c347 a8be 5902 803f 6d7c 283e
00000140: 9bd8 51bf 8dba b5be 6638 333f 828c 7fbf
00000150: 7ea0 91bf faaa 943f 3e28 483e 36c0 d8be
00000160: 5ad0 cebf 5f8d eebe 2a71 f33e e7f1 b0be
00000170: 382d 4ebd f1c3 50bf 3438 78bf 88b4 10bf
00000180: 95e8 b7bf e833 fb3d aef8 a4bf 10a5 18bf
00000190: 64cd 9ebf 8e0c 5ebf 8e22 a63f 92ac c1bf
000001a0: dd90 1cbf da62 053e 91fb 57bf c7d2 01bf
000001b0: 6e0b 91bf 2e21 c23e 93e6 28bf 5908 b2bf
000001c0: e317 afbf 9b99 3ebf 4db1 583f f54f 003f
000001d0: 42de dfbf a26a a8bf 3323 623f 69f4 94bf
000001e0: 5e42 d0bf b088 873d 6e79 3cbf a030 b2bf
000001f0: 1023 473e 2d98 b2bd bc97 493f d5b5 403f
00000200: 3d4b a8bf 3884 2cbf a2b4 3bbf 087d 27bd
00000210: b703 53bc db98 f73d 4181 88bd 0adf cc3e
00000220: 143b 323c d9e3 b3bf be52 93bf 7d08 94bf
00000230: 3147 593e bcb1 abbf 5e2b 9d3d 422e 5e3f
00000240: 2752 ff3e 3052 bdbf 1eee a2bf 984f 943c
00000250: 6221 a33f 9101 84bf 2fbb 0d3c c3a7 133f
00000260: 840d 2dbf bb7d 80bf ee3f 833f 2ec9 b2bf
00000270: 37aa b4bf 3d96 783e e29f 7dbf 7ee3 c2be
00000280: c916 8c3f 177a 953e 3ceb 35be 1605 93bf
00000290: 60a5 273e 394b 68be 5ac6 03bf 4e24 fdbe
000002a0: 7802 863f a3b4 093f a120 903e 58f7 55bf
000002b0: 3774 bfbf dd3b a7bf 4800 aebf 929f a8bd
000002c0: f168 233e daf3 24bf 70c1 f5bd c944 5fbf
000002d0: 929a 91bf 291b 8ebf bb67 b1bf bbca 3ebf
000002e0: ba1e 9ebf fb48 acbf 32cf 893e 5685 9cbf
000002f0: f56d 89be 9ba2 b6bf d833 11bf 0e1d 84bf
00000300: 2e37 a7bf 4d35 4ebf c685 8ebf 8eb8 afbf
00000310: 9925 bcbf 6396 81bf 8d06 6cbe 4697 d33e
00000320: 72a0 36bf 654c c6bf f2b3 9dbc f5ca 0fbe
00000330: 8e7b 20bf c4c4 29bc d202 9fbe a130 88bf
00000340: 4b20 f3be 3b9f 903f fa9c 9bbf ed4b 663e
00000350: e1f3 75bd 66ba b1bf 3cbb 20be d70c 13bf
00000360: 0e37 8ebf 362a 6e3f 052d 80bf def8 27be
00000370: 7c10 9bbf 67b2 06be f1d4 cbbf bbd3 8fbf
00000380: d5e2 7bbf 66da 8dbf ec8c 1c3f 5dbf b0be
00000390: 0212 403e 5885 77bf 27e3 9ebf 82d3 bf3e
000003a0: e3e9 2abf b6ae 173f cbc8 94bf 7bb5 bbbf
000003b0: 6103 c03e 2a4b 0e3f af83 9ebf 4a12 b2be
000003c0: 418f bfbf 53e0 66bf 4c96 613d 3940 913e
000003d0: 821d 22be d5b9 993f 28d5 bdbe b0ca bd3c
000003e0: 8fa9 3ebf f5ac 6dbf a9dc 88bf d322 bfbf
000003f0: 4f81 b4bf f86a 753f 9ff1 213f 9934 c2bf

fc2.weight f4 [80, 350]
0.6722269 -0.4978133 0.065272875 -0.05307159 -0.063136704 0.2641256 -0.5479864 -0.32593083
0.09294399 0.09739177 -0.05533333 -0.4414849 0.030831827 -0.51823497 0.1811489 0.11975846
0.19947952 -0.08850483 -0.027692098 -0.18502915 -0.55425435 0.104494594 0.048134677 0.42257142
0.33608785 -0.761012 0.01909717 0.14794858 0.75137615 0.091331445 -0.34740666 0.044020135
-0.012038466 -0.25204644 0.12928 -0.32794887 -0.09133784 -0.008744286 -0.28173253 0.8599751
0.08940727 -0.33430806 -0.010907997 -0.008219092 0.25420114 -0.72510475 0.13052084 0.32376176
-0.29430544 -0.21279779 0.15280095 0.038023744 0.16329035 0.1259147 0.056085303 -1.369998
0.06936878 0.033216335 0.5456232 -0.29841933 -0.07198446 0.17409365 0.18579733 0.19122903
-0.10995062 0.06604881 0.15587266 0.37189233 -0.1261039 0.13049278 0.120059006 0.22037853
-0.05355641 0.043146256 -0.9558656 0.04979267 -0.05199371 0.01431699 0.20438635 0.5934986
0.113507174 -0.27722052 0.0032096768 0.0073601445 -0.118112884 -0.019835802 0.49394527 -3.14196
0.21910204 0.23899294 -0.24725647 -0.043853596 -1.5043135 -0.59298 0.19685368 0.12991413
0.11536738 2.460539 0.14195418 0.02230581 0.25442195 0.44053546 -0.41130638 0.13164017
0.47773108 -1.193824 0.23472075 -0.11225681 0.13003653 -0.06973983 0.2808542 -0.07617543
0.17253026 -0.12049003 0.30621848 0.059259415 -0.041675888 0.06428651 0.25285006 0.08269767
0.25247315 -2.847146 0.21021965 0.23409799 0.49128643 -1.5492297 -0.20451148 -0.201437
0.11481365 -0.37255272 0.20723468 1.7899863 -1.0541279 0.77037466 -0.24074 0.12414639
-1.3165697 0.015509287 0.1925665 -0.37106416 -1.6675003 0.07074065 -0.671833 0.32939616
0.7345211 -0.08758604 0.0736409 0.898096 -0.73488754 0.19991173 0.016156761 0.31951284
0.050815947 -0.00088645454 0.02081748 0.15644301 0.023996135 -0.46747205 -0.124728024 0.12665336
0.3393838 -0.5310834 0.22099394 0.015826004 0.6678102 -0.76196086 0.084021114 0.15259285
-0.19107611 0.27014804 -0.02849119 0.08581802 0.055120125 0.09544704 -0.029211013 -0.6536287
0.6672699 0.21291502 0.76083326 0.20305102 0.006407148 0.10505871 0.025762446 0.14638947
0.14864935 0.17527269 0.2559295 -0.007298904 0.34717992 0.1065138 -0.12728585 -0.028613776
0.35241607 -0.031919103 0.074959025 0.0071931984 0.24324423 0.23685892 0.026086697 0.21273093
0.51249367 0.026985131 -1.9531794 0.74801075 -0.2320249 0.128145 0.8902393 0.64369226
-3.658084 -0.027143832 0.12468848 0.41433853 0.0063956436 0.23113522 -2.1567686 -0.004523355
0.14117569 -0.30635396 -0.21983787 0.13108687 0.06944499 -0.7512882 0.064275615 0.20928971
-0.015869522 0.20069341 0.053109474 0.2109732 -0.14160395 -0.09714089 0.008913791 -0.59085965
0.07533893 -0.018399846 0.27986515 0.13300903 1.0534118 -0.27361503 -0.029328363 0.42274034
0.19898655 -0.06674509 -3.771893 0.29389673 -2.6773274 0.063006766 0.243887 -0.302342
0.12341338 0.11236791 -0.05852939 0.18151596 0.11240022 0.43070096 0.017523512 -0.031928137
00000000: 1017 2c3f 63e1 febe c9ad 853d 9861 59bd
00000010: d14d 81bd 783b 873e d648 0cbf 68e0 a6be
00000020: 6b59 be3d 5675 c73d 34a5 62bd 4f0a e2be
00000030: 0793 fc3c 0cab 04bf 197f 393e ec43 f53d
00000040: 5c44 4c3e 0542 b5bd 8ada e2bc 4878 3dbe
00000050: 9de3 0dbf 4301 d63d de28 453d 485b d83e
00000060: b513 ac3e afd1 42bf ab71 9c3c d57f 173e
00000070: 305a 403f fb0b bb3d 49df b1be 754e 343d
00000080: fc3c 45bc 3b0c 81be fa61 043e eae8 a7be
00000090: 550f bbbd 3244 0fbc 3f3f 90be 5427 5c3f
000000a0: 291b b73d 6d2a abbe 75b7 32bc 5fa9 06bc
000000b0: a726 823e 77a0 39bf 41a7 053e 1ac4 a53e
000000c0: 34af 96be aae7 59be da77 1c3e c9be 1b3d
000000d0: 9635 273e c8ef 003e b4b9 653d 185c afbf
000000e0: 3811 8e3d da0d 083d f6ad 0b3f 6bca 98be
000000f0: 976c 93bd 9b45 323e a841 3e3e 8bd1 433e
00000100: ca2d e1bd 9944 873d 159d 1f3e ac68 be3e
00000110: 6121 01be e69f 053e 7fe1 f53d e9aa 613e
00000120: f75d 5bbd 21ba 303d 9cb3 74bf 66f3 4b3d
00000130: 5bf7 54bd cf91 6a3c a84a 513e 86ef 173f
00000140: 7376 e83d d9ef 8dbe 7159 523b 5e2d f13b
00000150: 2be5 f1bd b17e a2bc 65e6 fc3e df15 49c0
00000160: 495c 603e 91ba 743e cd30 7dbe d49f 33bd
00000170: 588d c0bf 8acd 17bf 0394 493e 3608 053e
00000180: bc45 ec3d 7979 1d40 705c 113e adba b63c
00000190: 9843 823e dd8d e13e c096 d2be aecc 063e
000001a0: 2b99 f43e 3acf 98bf a35a 703e e6e6 e5bd
000001b0: 4c28 053e c2d3 8ebd 1fcc 8f3e dd01 9cbd
000001c0: c6ab 303e 7ac3 f6bd abc8 9c3e 00ba 723d
000001d0: 56b4 2abd a5a8 833d 9075 813e 655d a93d
000001e0: 2944 813e a437 36c0 d243 573e 62b7 6f3e
000001f0: e589 fb3e 294d c6bf 756b 51be 8045 4ebe
00000200: 6b23 eb3d 3bbf bebe 5435 543e 451e e53f
00000210: aaed 86bf 4637 453f 8c84 76be 7640 fe3d
00000220: 5b85 a8bf aa1a 7e3c 2730 453e 1ffc bdbe
00000230: a670 d5bf 79e0 903d 3ffd 2bbf 9da6 a83e
00000240: 9309 3c3f 4f60 b3bd 0ad1 963d 9fe9 653f
00000250: 9721 3cbf a9b5 4c3e 2f5b 843c 3097 a33e
00000260: 6224 503d f560 68ba 6b89 aa3c 9932 203e
00000270: 8b93 c43c 7f58 efbe 6871 ffbd 6bb1 013e
00000280: b7c3 ad3e 15f5 07bf 3c4c 623e 89a5 813c
00000290: 9cf5 2a3f de0f 43bf 4313 ac3d 4d41 1c3e
000002a0: 75a9 43be d850 8a3e 5b66 e9bc 5cc1 af3d
000002b0: a4c5 613d bd79 c33d ef4b efbc 3654 27bf
000002c0: 33d2 2a3f 6506 5a3e f8c5 423f 9bec 4f3e
000002d0: 0ef3 d13b 0529 d73d c40b d33c 1fe7 153e
000002e0: 8937 183e af7a 333e 3109 833e a52b efbb
000002f0: 91c1 b13e e823 da3d 3957 02be 7067 eabc
00000300: e16f b43e 9bbd 02bd 1e84 993d ecb4 eb3b
00000310: 0415 793e 258b 723e c5b3 d53c 23d6 593e
00000320: c932 033f ec0f dd3c c801 fabf a27d 3f3f
00000330: ef97 6dbe 7138 033e b9e6 633f 04c9 243f
00000340: 0c1e 6ac0 be5c debc ac5c ff3d 2e24 d43e
00000350: 8c92 d13b b6ae 6c3e 7f08 0ac0 a738 94bb
00000360: 5c90 103e 6dda 9cbe 2e1d 61be a33b 063e
00000370: 2d39 8e3d 6c54 40bf efa2 833d 0b50 563e
00000380: cd00 82bc 9382 4d3e 5289 593d 5c09 583e
00000390: a000 11be cef1 c6bd 260b 123c 9442 17bf
000003a0: 4c4b 9a3d 46bb 96bc 7c4a 8f3e 8533 083e
000003b0: 33d6 863f 4517 8cbe 0942 f0bc 6c71 d83e
000003c0: 21c3 4b3e a6b1 88bd b266 71c0 a279 963e
000003d0: 5559 2bc0 b109 813d 84bd 793e 92cc 9abe
000003e0: 27c0 fc3d 2621 e63d 83bc 6fbd 52df 393e
000003f0: 1632 e63d d684 dc3e 788d 8f3c 14c7 02bd

fc2.bias f4 [80]
-0.21970008 -2.381172 -0.20580097 -0.3708167 -0.33425024 -2.6674745 -2.7778702 -2.6576126
-0.72759205 -2.484156 0.1664259 -2.4432678 -0.5807464 -0.08044592 -0.517276 -2.5564482
-2.1769202 -1.9279077 -2.6425447 -2.6780238 -0.5906768 -1.6812934 -0.49109665 -0.16888599
-0.2113426 0.12517302 -0.59643126 -0.8572263 -2.8164947 -0.87268263 -0.28454074 -2.7545428
-0.6698066 -2.2058551 0.46653786 -0.22751223 -2.458142 -2.3575523 -0.074099995 -0.31606346
-2.5099304 -2.597046 -2.368144 -0.6057252 -1.7534349 0.31512302 0.293723 -1.0712962
0.35642806 -2.5217721 -2.6930132 -2.7928464 -2.3139884 -2.627198 -2.7043962 0.13913585
-0.47489718 -0.5047128 -2.6949987 0.20693123 0.6927708 -2.463859 -2.8593378 -1.8159432
-2.696473 -0.04322034 -0.052774496 -0.54536027 -2.4154823 -2.8177557 0.21173525 -2.017673
-2.5445704 -1.8462993 -0.8739964 -0.033635035 -1.8224158 -2.2341444 -1.1856282 -2.629488
00000000: 0ff9 60be 1f65 18c0 7dbd 52be b0db bdbe
00000010: d922 abbe e7b7 2ac0 a0c8 31c0 5316 2ac0
00000020: 7943 3abf 69fc 1ec0 8d6b 2a3e 805e 1cc0
00000030: ccab 14bf d5c0 a4bd 336c 04bf d99c 23c0
00000040: a952 0bc0 aec5 f6bf 741f 29c0 be64 2bc0
00000050: 9836 17bf 9f34 d7bf 0571 fbbe 73f0 2cbe
00000060: 326a 58be 5b2d 003e b8af 18bf 2f73 5bbf
00000070: 7341 34c0 2168 5fbf 53af 91be 6e4a 30c0
00000080: 7278 2bbf bb2c 0dc0 0dde ee3e f7f8 68be
00000090: 3352 1dc0 23e2 16c0 bdc1 97bd 12d3 a1be
000000a0: b3a2 20c0 0036 26c0 ac8f 17c0 cf10 1bbf
000000b0: 8e70 e0bf ce57 a13e dc62 963e 3c20 89bf
000000c0: bd7d b63e b764 21c0 545a 2cc0 ffbd 32c0
000000d0: 6318 14c0 0324 28c0 d414 2dc0 a179 0e3e
000000e0: b925 f3be dc34 01bf dc7a 2cc0 c8e5 533e
000000f0: 6d59 313f deaf 1dc0 64ff 36c0 d470 e8bf
00000100: 0393 2cc0 d007 31bd 122a 58bd bb9c 0bbf
00000110: 4397 1ac0 1c56 34c0 20d1 583e 8e21 01c0
00000120: 3eda 22c0 8953 ecbf 3abe 5fbf e4c4 09bd
00000130: ec44 e9bf 39fc 0ec0 aac2 97bf 8849 28c0

fc3.weight f4 [4, 80]
-0.05554098 -0.038986564 0.0008567396 -0.8327231 -0.064715505 -0.005822732 -0.0053789834 -0.014720025
0.09271166 0.0023269302 -0.045403484 -0.0045404066 0.0039485428 0.021348316 -0.036843244 -0.0061952276
0.027376005 0.004085435 -0.0015973109 0.0014508809 0.005287114 -1.1816344 0.042018317 0.011815623
0.024277493 -2.873724 -0.07841664 1.2507223 -0.008388425 -0.090005055 -2.5542626 -0.003329101
0.049519204 -0.008665495 -9.936682 0.8777919 -0.019302329 0.0019381475 0.016638016 -0.06812329
-0.0011743662 -0.006259612 0.018403696 -0.055367507 -0.0049156146 -0.00024238137 -2.3990164 -0.0839572
-3.2670457 -0.004243036 -0.008710238 -0.0058777886 -0.0013988916 0.0035500773 -0.0068421713 0.05568146
-0.05190833 -0.0038356292 0.0008858704 -0.09296072 -0.019854901 -0.003515925 -0.0072135525 -1.2466395
-0.016413044 0.012485557 0.058292214 -0.05250916 0.005105254 0.0010680234 -0.034655664 -0.01074592
-0.004436551 0.06993641 0.007468243 0.022126352 -0.0074771047 -0.02165065 -0.0041776793 0.0016385848
0.017528106 -0.00012872649 0.020126292 2.0703063 -3.0363078 0.0021973646 -0.0010476174 -0.008248889
0.24263194 -0.008762669 -9.20288 -0.0033371362 0.12450398 0.010236909 0.096920796 0.0035844154
-0.0075960597 0.0051830267 -0.00033523556 -0.0040926817 -0.0127670355 -0.026111303 -0.009027478 -3.8230557
0.022565423 0.004075703 0.06341358 -0.044287458 -0.0016080199 -0.22041377 -0.03308316 -0.006016146
0.0074327947 -0.0074629285 -0.031311247 -0.20543322 -0.007412525 0.0031168985 0.03167637 0.038821608
-0.0055670557 -0.008193266 -0.0043531926 -0.019798435 -1.8064351 0.04386801 0.017795665 0.29878637
-0.036164053 -0.0005955924 -0.00568661 -0.016681733 -0.010231175 0.01784901 -0.012858822 -0.043606192
0.087174304 -0.021209607 0.0011598547 0.0170517 -0.030269379 -0.0031398418 -0.014871976 -0.014643036
-0.0086856615 0.005697868 -2.3807874 0.017379092 -0.0003032762 -0.004062014 -0.03615312 -0.004561652
-0.0113327075 -0.1835935 -0.040348694 -0.11355081 -0.0016451465 -0.0025926337 0.04356893 -0.0032392347
-0.05308327 -0.024537662 2.3423483 0.024534516 -0.022969319 -0.009837655 -0.025905453 -0.011903946
0.0055760248 -0.048665512 -0.027072525 -0.0124619575 0.07305763 -3.1226618 0.754355 -0.012231259
-0.02263324 -0.01163196 -0.030417494 -0.021662628 0.08008009 -0.015453458 -2.7662907 -0.00793624
-0.13471548 0.0012537396 -0.02232506 -0.051816028 -0.013770025 0.09879355 0.014838887 -0.00936673
-0.076913975 -0.03983898 -0.034667067 -0.00039634397 -0.011048599 -0.008474105 0.002909512 -0.0023269663
-0.030104563 -0.014245203 -0.012456017 0.09877024 0.009923304 -3.4160433 0.016418744 -1.4144363
0.04596045 -0.026017927 -0.01736399 -0.03339378 -0.012078607 -0.0196343 -0.032712366 -1.0066648
0.00922978 -0.015246841 -0.02754825 -0.060719788 -0.022193119 -0.014316992 -0.021000186 -0.027075343
-0.020949034 -2.0962389 0.04717732 0.041429944 -0.03561569 -0.011852477 -9.319662 -0.02949344
-0.035628546 -0.059140205 0.014967647 0.009135328 -0.0032433416 -0.038676538 0.06452693 -0.023874724
-3.3535814 -0.023366205 -0.45629892 -0.022456037 0.101765566 -0.0012515031 -0.014345379 0.0015948027
-0.11498334 -0.0050679585 -0.039839406 -0.013146807 -0.085160956 -0.010507432 -0.16512683 -0.014860977
00000000: f07e 63bd 60b0 1fbd d296 603a 572d 55bf
00000010: 9089 84bd 9ecc bebb 2f42 b0bb 422c 71bc
00000020: 9cdf bd3d 697f 183b 01f9 39bd b1c7 94bb
00000030: c762 813b aae2 ae3c f1e8 16bd 5601 cbbb
00000040: a543 e03c 1ddf 853b dc5c d1ba 7c2b be3a
00000050: 873f ad3b cc3f 97bf 661b 2c3d 5196 413c
00000060: 98e1 c63c 18eb 37c0 e798 a0bd ab17 a03f
00000070: 9b6f 09bc 9254 b8bd 0a79 23c0 0c2d 5abb
00000080: a6d4 4a3d b8f9 0dbc a6fc 1ec1 f8b6 603f
00000090: eb1f 9ebc 7009 fe3a 734c 883c 3984 8bbd
000000a0: 31ed 99ba 6e1d cdbb 59c3 963c 0ac9 62bd
000000b0: 2a13 a1bb c127 7eb9 7c89 19c0 c1f1 abbd
000000c0: 4717 51c0 2a09 8bbb 63b5 0ebc 779a c0bb
000000d0: 035b b7ba 6aa8 683b 4b34 e0bb 3e12 643d
000000e0: d49d 54bd 2e5f 7bbb c239 683a 3162 bebd
000000f0: bfa6 a2bc 6f6b 66bb aa5f ecbb e291 9fbf
00000100: a674 86bc 3990 4c3c d1c3 6e3d d813 57bd
00000110: f949 a73b ebfc 8b3a 19f3 0dbd a80f 30bc
00000120: 7d60 91bb d23a 8f3d 2ab8 f43b 5342 b53c
00000130: 8002 f5bb b45c b1bc eae4 88bb c8c5 d63a
00000140: 1a97 8f3c c1fa 06b9 e5df a43c e67f 0440
00000150: de52 42c0 a901 103b 3550 89ba 5926 07bc
00000160: 8274 783e 4c91 0fbc ff3e 13c1 dbb3 5abb
00000170: f1fb fe3d b5b8 273c 697e c63d 83e8 6a3b
00000180: 5ee8 f8bb 61d6 a93b 8ec2 afb9 e71b 86bb
00000190: d42c 51bc 5fe7 d5bc fde7 13bc f2ac 74c0
000001a0: 1fdb b83c 7a8d 853b fbde 813d c466 35bd
000001b0: 32c4 d2ba 26b4 61be 3582 07bd 1723 c5bb
000001c0: cd8e f33b 958b f4bb 3940 00bd 165d 52be
000001d0: c4e4 f2bb e144 4c3b 15bf 013d 6803 1f3d
000001e0: d96b b6bb 0c3d 06bc 3aa5 8ebb 5430 a2bc
000001f0: 4439 e7bf f1ae 333d 37c8 913c 87fa 983e
00000200: c220 14bd 8821 1cba be56 babb 21a8 88bc
00000210: a9a0 27bc 1638 923c cfad 52bc 689c 32bd
00000220: 7188 b23d c5bf adbc 4406 983a 02b0 8b3c
00000230: 7df7 f7bc cec5 4dbb 97a9 73bc 58e9 6fbc
00000240: 4e4e 0ebc 2eb5 ba3b d25e 18c0 995e 8e3c
00000250: 0b01 9fb9 a51a 85bb 4b15 14bd e979 95bb
00000260: d2ac 39bc efff 3bbe ac44 25bd 548d e8bd
00000270: f5a1 d7ba 2de9 29bb 5675 323d 5749 54bb
00000280: d86d 59bd 3503 c9bc 09e9 1540 9cfc c83c
00000290: 272a bcbc 1e2e 21bc ac37 d4bc c508 43bc
000002a0: 16b7 b63b 7d55 47bd 33c7 ddbc 3d2d 4cbc
000002b0: 3d9f 953d b1d9 47c0 691d 413f 9e65 48bc
000002c0: 5869 b9bc fa93 3ebc 1c2e f9bc d375 b1bc
000002d0: 0801 a43d 8030 7dbc e80a 31c0 0107 02bc
000002e0: dbf2 09be 8554 a43a 0be3 b6bc 0b3d 54bd
000002f0: ac9b 61bc 4654 ca3d ce1e 733c ea76 19bc
00000300: 1385 9dbd 332e 23bd 0eff 0dbd 63cc cfb9
00000310: 2f05 35bc f9d6 0abc 83ad 3e3b 0480 18bb
00000320: d89d f6bc b664 69bc 5214 4cbc 0d48 ca3d
00000330: 5b95 223c 74a0 5ac0 9a80 863c 400c b5bf
00000340: 0641 3c3d 8c23 d5bc ed3e 8ebc ebc7 08bd
00000350: 5ae5 45bc 1dd8 a0bc 67fd 05bd 64da 80bf
00000360: 8138 173c e3cd 79bc deac e1bc 50b5 78bd
00000370: 58ce b5bc d191 6abc 9508 acbc 1ccd ddbc
00000380: 4f9d abbc c728 06c0 013d 413d 72b2 293d
00000390: c2e1 11bd e430 42bc 561d 15c1 3a9c f1bc
000003a0: 3def 11bd 003d 72bd dd3a 753c 58ac 153c
000003b0: 3e8e 54bb 4a6b 1ebd b226 843d ed94 c3bc
000003c0: 14a1 56c0 7c6a bfbc 03a0 e9be b9f5 b7bc
000003d0: 776a d03d 7a09 a4ba e108 6bbc b308 d13a
000003e0: 637c ebbd 1e11 a6bb a52e 23bd b565 57bc
000003f0: de68 aebd 5d27 2cbc 0217 29be 757b 73bc

fc3.bias f4 [4]
0.3737903 0.373126 0.34800777 0.26684657
00000000: 7161 bf3e 5f0a bf3e 132e b23e 1da0 883e
