Task/Task3/CNN_Net.pth (torch, 282991 bytes, 16 tensors)

layer1.0.weight f4 [32, 1, 1, 10]
0	0x3da8dfad	0.08245788
1	0x3e57811c	0.21045345
2	0xbe39b8cc	-0.181369
3	0xbe099757	-0.13436638
4	0x3e81d172	0.25355107
5	0xbe063cd6	-0.13109145
6	0x3d878ab9	0.06618256
7	0xbead263f	-0.33818242
8	0xbe0baa50	-0.13639188
9	0x3edce406	0.43142718
10	0x3ea4ddf0	0.32200575
11	0x3d9ed75d	0.07755921
12	0xbead8d6b	-0.33896956
13	0xbdbc31fd	-0.09189222
14	0xbe4b92b0	-0.19880176
15	0x3dce72c8	0.100804865
16	0x3e8f4fa2	0.27990443
17	0x3dc1fbc1	0.09471846
18	0xbd34b51a	-0.044118024
19	0xbe8d0cdf	-0.27548882
20	0xbdd5554a	-0.10416658
21	0x3981acc1	0.0002473351
22	0x3d2220a5	0.039581914
23	0xbe4f7948	-0.20261109
24	0xbe067d94	-0.13133842
25	0xbd073fd6	-0.033019863
26	0x3cc37e45	0.023863921
27	0xbba11cc8	-0.004916761
28	0xbe3e5cd8	-0.18590105
29	0xbe34d799	-0.17660369
30	0x3e7fe948	0.24991333
31	0x3c3fbc94	0.011702675
32	0x3ca85c40	0.0205518
33	0xbeb2862c	-0.3486799
34	0xbd8871a6	-0.06662302
35	0x3e5abaa2	0.21360257
36	0x3e81fe5d	0.25389376
37	0xbcdacbb6	-0.026708465
38	0x3cd972b5	0.026543954
39	0xbe66541c	-0.22493023
40	0xbe242161	-0.16028358
41	0x3d111c8a	0.035427608
42	0x3e2e2284	0.17005354
43	0xbe5f4de5	-0.21807058
44	0x3d819b9e	0.0632851
45	0x3d54aea3	0.05192436
46	0x3ee0b52f	0.43888232
47	0x3e2acc6e	0.16679546
48	0xbe74670f	-0.23867439
49	0xbec498f7	-0.38397953
50	0xbdb1aeee	-0.08675943
51	0xbe12b212	-0.14325741
52	0x3e772c82	0.24138072
53	0x3cad214b	0.02113404
54	0xbe3d42f8	-0.18482578
55	0x3e362f4f	0.17791484
56	0xbdcdf046	-0.10055594
57	0x3dadf5c4	0.08494142
58	0x3e6a174c	0.2286045
59	0x3ed3508e	0.41272396
60	0x3e65c36b	0.22437827
61	0x3e0313b9	0.12800492
62	0x3e6a3af4	0.22874051
63	0x3d02552f	0.03181952
64	0x3e145464	0.14485317
65	0x3c20cd1e	0.009814529
66	0xbe0adbc5	-0.13560398
67	0xbe10452a	-0.14088884
68	0xbe9ef114	-0.31043303
69	0xbcde15c6	-0.027109992
70	0x3e67c41e	0.22633407
71	0x3db86b5e	0.09004854
72	0xbe4b358a	-0.19844642
73	0xbe46a882	-0.19400218
74	0x3ccafbc6	0.024778258
75	0xbe190541	-0.1494341
76	0xbdab0ee2	-0.08352448
77	0xbdbc07ac	-0.09181151
78	0x3d524d30	0.051343143
79	0xbdbc432d	-0.091925
80	0xbd0e144a	-0.034687318
81	0xbe26042a	-0.16212526
82	0x3d80fcd1	0.06298221
83	0xbb2e8715	-0.0026630808
84	0x3e6a88b2	0.22903708
85	0xbde7f8da	-0.113267615
86	0xbe2371c0	-0.15961361
87	0xbe24098b	-0.16019265
88	0xbe40de29	-0.18834747
89	0x3e90155b	0.28141293
90	0xbe899743	-0.26873216
91	0x3ea74477	0.32669422
92	0xbe6a03d1	-0.22853018
93	0xbc942896	-0.01808576
94	0xbdeee843	-0.11665394
95	0xbe03b0ca	-0.12860408
96	0xbdd322d4	-0.10309377
97	0x3caf93cf	0.021432785
98	0x3e81c59f	0.25346085
99	0x3ea8378f	0.32854888
100	0x3eae4b47	0.34041807
101	0xbd140b7b	-0.03614376
102	0x3c9f0b77	0.019414647
103	0xbd6470e0	-0.05577171
104	0x3d05b18b	0.03264002
105	0x3e577294	0.21039802
106	0x3d40bc97	0.047054853
107	0x3e3821b4	0.17981607
108	0x3d3240df	0.043518897
109	0xbe5a7de6	-0.21337089
110	0xbd2b9264	-0.041887656
111	0xbeb88614	-0.36039793
112	0xbe666418	-0.2249912
113	0x3ea9856b	0.33109602
114	0x3ec20cb6	0.37900323
115	0xbe2ba2a2	-0.16761258
116	0x3dcd9c38	0.10039562
117	0x3de8af66	0.113615796
118	0x3e40f817	0.18844639
119	0xbea69e64	-0.32542717
120	0xbe8e724c	-0.27821577
121	0x3e34c556	0.17653403
122	0x3e60a486	0.2193776
123	0x3e165952	0.1468251
124	0x3d93a42f	0.0720905
125	0xbe189ae5	-0.14902838
126	0xbe827bea	-0.25485164
127	0xbe6c5cd0	-0.2308228
128	0x3ea02fb0	0.31286383
129	0x3e0abc2b	0.13548343
130	0x3c937313	0.017999208
131	0x3dedd77e	0.116133675
132	0x3beca12d	0.007221362
133	0xbca8a1b1	-0.020584913
134	0x3dd4d8a9	0.10392887
135	0xbe832b55	-0.25618997
136	0xbe8ec029	-0.27880982
137	0x3abeec57	0.0014566284
138	0x3ee1295d	0.4397687
139	0xbde14661	-0.10999752
140	0xbe286261	-0.16443779
141	0x3e0bc56d	0.1364953
142	0xbd9ef44f	-0.07761442
143	0xbe0d36c1	-0.13790418
144	0x3d762a80	0.060099125
145	0x3e1346e1	0.14382507
146	0xbd123f7b	-0.03570507
147	0x3e2b0c04	0.16703802
148	0x3ea04d2d	0.3130888
149	0x3e470cd4	0.19438487
150	0x3e5d8ed8	0.21636522
151	0x3e6e0ef4	0.23247892
152	0xbd3437ec	-0.043998644
153	0xbec50d2d	-0.38486615
154	0xbd34d858	-0.044151634
155	0xbbc61e7f	-0.006046116
156	0x3e206d49	0.15666689
157	0x3e9c9ad0	0.30586863
158	0x3c4da451	0.012551383
159	0xbb9a143f	-0.0047021206
160	0xbe901c21	-0.2814646
161	0xbe7aac32	-0.2447975
162	0x3e53aaaf	0.2067058
163	0xbe02d533	-0.12776642
164	0x3e8b812d	0.2724699
165	0xbd5fe843	-0.05466486
166	0x3e596f28	0.21233809
167	0x3e3752ef	0.1790273
168	0x3d6dda15	0.058069307
169	0x3e3650ef	0.17804311
170	0x3da54b9e	0.080710635
171	0x3ca6d1f9	0.020363795
172	0xbe378ad0	-0.17924047
173	0x3e7f5356	0.24934134
174	0x3d8eadc4	0.06966737
175	0xbb9d15b9	-0.0047938493
176	0xbe3aca36	-0.182412
177	0xbe99207e	-0.29907602
178	0x3ecd6066	0.4011261
179	0x3ea9b001	0.33142093
180	0xbe93a9fd	-0.28840628
181	0xbe986098	-0.29761195
182	0xbdbd9bab	-0.09258207
183	0x3e086ecb	0.13323514
184	0x3e093028	0.13397276
185	0x3c64e134	0.013969708
186	0xbe5deec5	-0.21673115
187	0x3e11f4f2	0.14253595
188	0x3e958cc4	0.29208958
189	0x3e381a03	0.17978673
190	0x3c94a4ae	0.018144932
191	0x3dbef5b9	0.093242116
192	0xbc03c97d	-0.008043644
193	0x3daf63d4	0.085639626
194	0xbe63d092	-0.22247532
195	0xbe3e9db6	-0.1861485
196	0x3dc234f2	0.09482755
197	0xbe1dc6b3	-0.15407829
198	0xbe76eca2	-0.24113706
199	0x3ef6f4d0	0.48233652
200	0xbe3d0511	-0.18458964
201	0xbdffe005	-0.124939
202	0x3e0a6ee9	0.13518871
203	0x3e105e0a	0.14098373
204	0xbe0100b3	-0.12597923
205	0xbd7c3d13	-0.061581682
206	0x3e2fc6f7	0.17165743
207	0xbd222376	-0.0395846
208	0xbe78f01e	-0.24310347
209	0xbeb39ee1	-0.35082152
210	0xbe8cf030	-0.27527
211	0xbd8fdef1	-0.070249446
212	0x3d08a1ea	0.03335754
213	0x3bc8ded0	0.006130077
214	0x3ea5ffe2	0.32421786
215	0x3c7677be	0.015043197
216	0x3d710fe1	0.058853034
217	0x3dd8f3de	0.10593389
218	0xbdc7e0e7	-0.097596936
219	0xbee99a1d	-0.45625392
220	0x3ed729ac	0.4202398
221	0xbe11e719	-0.14248313
222	0x3e93b036	0.28845376
223	0x3e571792	0.21005085
224	0xbe50f2ad	-0.20405073
225	0x3da77dd3	0.08178296
226	0xbdfc964a	-0.12333353
227	0xbe4737d6	-0.19454893
228	0xbe2f8446	-0.17140302
229	0x3e22347b	0.15840332
230	0xbe08ccbe	-0.13359353
231	0x3e10c028	0.14135802
232	0xbc9c4f01	-0.01908064
233	0x3e8603ae	0.26174682
234	0xbdb7cbd3	-0.08974423
235	0x3d21bed3	0.039488625
236	0xbe2b3743	-0.167203
237	0xbeca8916	-0.39557713
238	0xbde97d41	-0.114008434
239	0x3eaf6537	0.34256908
240	0x3eb5e940	0.35529518
241	0x3cef0578	0.029177412
242	0xbdfa93b0	-0.122352004
243	0xbeb8609b	-0.36011204
244	0xbe9a5d1b	-0.3014916
245	0x3e1615e4	0.14656788
246	0x3e31b5e6	0.17354545
247	0x3eac8f57	0.3370311
248	0x3dbe4694	0.092908055
249	0xbe7ce9e3	-0.24698596
250	0xbe81c031	-0.25341943
251	0x3e266504	0.16249472
252	0xbd711658	-0.0588592
253	0x3deb84ea	0.11499961
254	0xbd6a7291	-0.057238165
255	0x3e88efed	0.2674555

layer1.0.bias f4 [32]
0	0xb62f8210	-2.6152738e-06
1	0xb7955e6b	-1.7806151e-05
2	0x336e98fd	5.5552835e-08
3	0xb786d85c	-1.6074795e-05
4	0x37a64a4f	1.9823345e-05
5	0xb584ee1c	-9.904065e-07
6	0xb56ee916	-8.9001094e-07
7	0xb3a2d9fe	-7.5833654e-08
8	0x369427cf	4.415378e-06
9	0x363e4335	2.8351326e-06
10	0x3462c4c5	2.1119475e-07
11	0xb770c91c	-1.4351939e-05
12	0x36e8c657	6.9372286e-06
13	0x38b60268	8.6788845e-05
14	0x3416fbdc	1.4061465e-07
15	0xb5f12a67	-1.796824e-06
16	0xb462328a	-2.1066276e-07
17	0x3634e718	2.6956604e-06
18	0x352ab96b	6.3599754e-07
19	0x35882f46	1.0146548e-06
20	0x347549e4	2.2844284e-07
21	0x3649f3aa	3.0093165e-06
22	0x33f3e783	1.1357681e-07
23	0x37368f98	1.0881478e-05
24	0xb65c5374	-3.283113e-06
25	0x35607166	8.361152e-07
26	0xb54452a6	-7.313596e-07
27	0x35bdb0d4	1.4133061e-06
28	0x35b5a21f	1.3532734e-06
29	0xb5e48789	-1.702677e-06
30	0xb58433ef	-9.849881e-07
31	0x341f90fe	1.4860777e-07

layer1.1.weight f4 [32]
0	0x3f8e5cba	1.1122048
1	0x3fa13198	1.259326
2	0x3edb17c9	0.42791584
3	0x3f56d50a	0.8391882
4	0x3fa8e603	1.3195194
5	0x3ec689e0	0.38777065
6	0x3f2ce8a3	0.67542475
7	0x3e9d3ca6	0.30710334
8	0x3f43c55a	0.7647301
9	0x3f42e6c8	0.76133394
10	0x3efa8bcb	0.4893478
11	0x3f8adf72	1.084944
12	0x3f729f6e	0.9477452
13	0x3f8d43aa	1.1036274
14	0x3e877ccf	0.2646241
15	0x3f03d0a8	0.5149026
16	0x3e91037d	0.28322974
17	0x3efa36b3	0.48869857
18	0x3f2e16bb	0.68003434
19	0x3f809168	1.0044374
20	0x3f321e16	0.6957716
21	0x3f98713e	1.1909559
22	0x3f10a89c	0.5650728
23	0x3f83c43a	1.0294259
24	0x3f643117	0.89137405
25	0x3ef34ac2	0.47517973
26	0x3f6ce5e0	0.9253826
27	0x3f6f8b10	0.9357157
28	0x3f6d060b	0.92587346
29	0x3f14193d	0.5785101
30	0x3f864bd5	1.0491892
31	0x3e95dba0	0.29269123

layer1.1.bias f4 [32]
0	0x3e564961	0.2092643
1	0x3e434479	0.19069089
2	0xbb4a814a	-0.0030899816
3	0xbdc4c24f	-0.09607374
4	0x3e3cb6ef	0.18429159
5	0xbd481d9a	-0.048856355
6	0xbd5f704a	-0.054550447
7	0xbe1848e6	-0.14871559
8	0x3e1e98b9	0.15487947
9	0x3c286933	0.010278988
10	0xbdb8c13e	-0.09021233
11	0x3e67c0b6	0.22632107
12	0x3c8e8646	0.017398011
13	0x3e231044	0.15924174
14	0xbd8160e1	-0.06317306
15	0xbe4c849a	-0.19972458
16	0xbd7ff59a	-0.062490083
17	0xbaf0840f	-0.0018349903
18	0xbdb60d9c	-0.088893145
19	0x3d2a9750	0.04164821
20	0x3e09b83f	0.1344919
21	0x3e67ad74	0.22624761
22	0xbb2cf4fe	-0.0026391144
23	0xbde1f9b5	-0.11033956
24	0xbeb09186	-0.34486026
25	0xbec56a5c	-0.38557708
26	0xbee51fee	-0.44750923
27	0x3db1e75c	0.086867064
28	0xbc9ace4b	-0.018897196
29	0x3ce16180	0.027512312
30	0x3e3ea951	0.18619277
31	0xbdc87d95	-0.09789578

layer1.1.running_mean f4 [32]
0	0xbf4a2f16	-0.789781
1	0x3f0c3a00	0.54776
2	0x40db7d52	6.859048
3	0xbf815426	-1.0103805
4	0x3edd9c86	0.4328348
5	0xc0b366fe	-5.6063223
6	0xbfb166e5	-1.3859526
7	0x4071956a	3.7747445
8	0x400e3906	2.2222304
9	0xbf1848e6	-0.59486234
10	0xc0a1503e	-5.041045
11	0x3d5504a6	0.052006386
12	0xbfa1144b	-1.2584318
13	0xbdcd5814	-0.10026565
14	0xc0a8d998	-5.2765617
15	0xc0728e0a	-3.7899194
16	0xc05f73c1	-3.49144
17	0xc0821169	-4.0646253
18	0xbca9d39f	-0.020730792
19	0x3efe8490	0.49710512
20	0x40c01690	6.002754
21	0x403b756f	2.9290426
22	0xc0330d51	-2.7976878
23	0x3fb07a87	1.3787392
24	0xbf54144f	-0.8284349
25	0xbfad1795	-1.3522822
26	0x409429fc	4.630125
27	0x4002d78b	2.0444057
28	0x3f923e03	1.1425174
29	0x40a7db16	5.245494
30	0x409781d5	4.7345986
31	0xc0c13e88	-6.038883

layer1.1.running_var f4 [32]
0	0x42460205	49.501972
1	0x42574887	53.820827
2	0x44c32718	1561.2217
3	0x42823d09	65.11921
4	0x428afa24	69.488556
5	0x4496b759	1205.7296
6	0x43c8c38d	401.52774
7	0x440be75e	559.6151
8	0x43390b87	185.04503
9	0x43420721	194.02785
10	0x44644445	913.0667
11	0x428815f8	68.04291
12	0x42867d91	67.24525
13	0x41293ad4	10.576862
14	0x448a3626	1105.6921
15	0x43e6adb3	461.35703
16	0x442bb3b7	686.80804
17	0x440b78bc	557.8865
18	0x43acfbb7	345.96652
19	0x428c58cb	70.17342
20	0x449436da	1185.7141
21	0x439cb479	313.40994
22	0x43dd73c6	442.90448
23	0x42d6a735	107.32658
24	0x425f9e2a	55.904457
25	0x43038822	131.53177
26	0x443c303c	752.75366
27	0x433f47cf	191.2805
28	0x430490e0	132.56592
29	0x44770057	988.0053
30	0x446aec5e	939.69324
31	0x44a503f9	1320.1241

layer2.0.weight f4 [32, 32, 12, 5]
0	0x3c80caa9	0.015721636
1	0x3d133d0a	0.035946883
2	0x8015ddba	-2.008086e-39
3	0x3cf68ba2	0.030095879
4	0x3d8d4969	0.068987675
5	0x3d8c965d	0.06864617
6	0x3da019b8	0.078174055
7	0x3d8b0f47	0.06790023
8	0x3cb52016	0.022110026
9	0x3d2407f0	0.040046632
10	0x3d89c951	0.06727851
11	0x3db37985	0.087634124
12	0x3da4b282	0.0804186
13	0xbc8ebf9f	-0.017425356
14	0x3d50945e	0.050922744
15	0x3ae995a9	0.0017821091
16	0x3d064cff	0.032788273
17	0x000752a3	6.72493e-40
18	0x3c95e7c9	0.018299
19	0x3cc38af6	0.023869973
20	0x3be16746	0.006878766
21	0x3d03bde3	0.032163512
22	0x3d8f960b	0.0701104
23	0x3d1cd310	0.038287222
24	0x3d8877b6	0.06663458
25	0xbd895bb1	-0.06706942
26	0xbdd5ad6e	-0.1043347
27	0xbe03174e	-0.12801859
28	0x3c6db66b	0.014508824
29	0xbdf35f0f	-0.11883365
30	0x3e0d55a1	0.13802196
31	0x3dd80577	0.10547917
32	0x3dc740e0	0.09729171
33	0x3dcfb213	0.10141387
34	0x3d9fa879	0.077958055
35	0xbbc4d859	-0.006007236
36	0x3c312ea3	0.010814342
37	0x3ae800bf	0.0017700418
38	0xbd6b5d28	-0.057461888
39	0x3d2d07e1	0.042243842
40	0x3d5ca62f	0.053869423
41	0x3df86efd	0.12130544
42	0x3deb2dd4	0.114833504
43	0x3df4d51f	0.11954712
44	0x3d3cf64b	0.04613332
45	0xbccdc9f0	-0.025120705
46	0xbc93d9f9	-0.018048273
47	0xbc8c4ba3	-0.01712591
48	0x3cd8432e	0.026399221
49	0xbd9d7c82	-0.076897636
50	0x3d151968	0.036401182
51	0x3d8d993b	0.06913992
52	0x3dc198b8	0.09452957
53	0xbd047b52	-0.03234417
54	0xbd14104a	-0.036148347
55	0xbc1df16e	-0.009640081
56	0xbc8acca2	-0.01694328
57	0xbb06278c	-0.002047035
58	0x3d4ee9e8	0.05051604
59	0x3bbdbf97	0.0057906616
60	0xbbc70a7e	-0.006074249
61	0x3d7a45f2	0.06110186
62	0x3d278f43	0.04090811
63	0x3dc5e67d	0.09663103
64	0x3d9aaf9a	0.075530246
65	0xbd93943f	-0.0720601
66	0xbd72734f	-0.059191998
67	0xbd41cebb	-0.047316294
68	0xbd1548e3	-0.036446463
69	0xbd1ab3c5	-0.037769098
70	0xbd8ebd5a	-0.0696971
71	0xbd7461c8	-0.059663564
72	0xbdbd1371	-0.09232224
73	0xbcf00ce0	-0.029303014
74	0xbdb1962b	-0.086712204
75	0x3cc07b59	0.023496317
76	0x3c988855	0.018619696
77	0x3c4498ec	0.01199935
78	0x3d11b4c1	0.03557277
79	0x3d263148	0.040574342
80	0xbd14ecea	-0.03635875
81	0xbd8d459c	-0.068980426
82	0xbc51d529	-0.012807169
83	0x3dd35ff0	0.10321033
84	0xbad96613	-0.0016586207
85	0x3dd8ae8e	0.10580169
86	0x3d8a9c34	0.06768075
87	0x3d766f6a	0.060164846
88	0xbd0eedc0	-0.034894705
89	0x3c00ece9	0.007868984
90	0x3d9f3206	0.07773213
91	0xbd709372	-0.058734365
92	0xbdb5dbb6	-0.08879797
93	0xbd84d8d8	-0.06486672
94	0xbdf830f6	-0.121187136
95	0x3bce8a29	0.006303091
96	0x3d231264	0.03981246
97	0xbd8a403d	-0.06750534
98	0xbd9c22a3	-0.07623794
99	0xbd874c3e	-0.06606339
100	0x3ab8c948	0.0014098072
101	0x3c8bb46d	0.017053807
102	0xbdba5eca	-0.09100111
103	0xbdfb7105	-0.12277416
104	0xbd233b29	-0.03985134
105	0xbd09626c	-0.033541128
106	0x3be600bd	0.007019131
107	0xbd15a620	-0.036535382
108	0xbc4ac61d	-0.012376335
109	0x3da94835	0.082657255
110	0xbde79e4d	-0.1130949
111	0xbe0a7fdd	-0.13525338
112	0xbc0dabc2	-0.008646907
113	0x3d19636c	0.03744833
114	0x3ce9b541	0.028528811
115	0xbd9c3bfe	-0.0762863
116	0xbd9d64d4	-0.07685247
117	0x3b5c054a	0.0033572488
118	0x3cf9384c	0.030422352
119	0x3da9d04d	0.08291683
120	0xbd0f777d	-0.035026062
121	0xbb166dd3	-0.0022953644
122	0x3c03fecb	0.008056353
123	0x3b3a1f52	0.0028400016
124	0x3b430c1d	0.0029761859
125	0xb7a557b6	-1.9710376e-05
126	0xb7962162	-1.7896939e-05
127	0xb778b8f2	-1.4825013e-05
128	0xb734da51	-1.0779667e-05
129	0xb6e426bf	-6.79944e-06
130	0x3d0449df	0.03229701
131	0x3d057cfb	0.032589894
132	0x3d059d75	0.032620866
133	0x3cf2f0c4	0.029655822
134	0x3cc546ff	0.024081705
135	0xbb5c573e	-0.0033621336
136	0xbbd8c635	-0.006615425
137	0xbba3a886	-0.004994455
138	0xbc1726e8	-0.009225585
139	0xbc2089eb	-0.009798507
140	0xbb954b68	-0.0045561083
141	0xbbc0cb64	-0.005883621
142	0xbc133154	-0.008983929
143	0xbc1d72e3	-0.009609911
144	0xbc262f07	-0.010143048
145	0x3c615a6c	0.013754468
146	0x3c6d0545	0.014466588
147	0x3c774721	0.015092642
148	0x3c61096a	0.013735155
149	0x3c45cbbe	0.012072502
150	0xbd8a5cd5	-0.067559876
151	0xbd812de8	-0.06307584
152	0xbd746fb0	-0.059676826
153	0xbd94d87b	-0.07267853
154	0xbdaa29a1	-0.08308721
155	0xbd0b7c04	-0.034053817
156	0xbd2446c1	-0.04010654
157	0xbd1be6ee	-0.03806203
158	0xbd3049cb	-0.043039124
159	0xbce0f939	-0.027462589
160	0x3c526615	0.012841721
161	0x3d0b723b	0.034044486
162	0x3d2338c4	0.039849058
163	0x3d176d12	0.036969252
164	0x3ca673ad	0.02031883
165	0x3c1a5260	0.009419054
166	0x3d029b83	0.03188659
167	0x3d1415a9	0.03615347
168	0x3d08a313	0.033358645
169	0x3c89aed6	0.016807001
170	0xbce35cee	-0.027754273
171	0xbcb0ba12	-0.0215731
172	0xbca8f588	-0.02062489
173	0xbc15f7cf	-0.00915332
174	0x3c8f3c65	0.017484853
175	0x3dd58d10	0.10427296
176	0x3dd7dd0b	0.105402075
177	0x3ddffac5	0.10936502
178	0x3dd0b9c7	0.10191684
179	0x3d8c0a5f	0.06837916
180	0xbbb94a14	-0.0056545828
181	0x3be974fe	0.0071245423
182	0x800a2eba	-9.35117e-40
183	0x80083ad7	-7.55792e-40
184	0x000fe8d8	1.461061e-39
185	0x3c36e1dc	0.0111622475
186	0x3c66b7e9	0.014081934
187	0x3c405eef	0.011741384
188	0x3b9ef1ac	0.004850587
189	0x3c3a918d	0.011387241
190	0x3d2d287a	0.04227493
191	0x3d4b3321	0.049609307
192	0x3d07dee6	0.033171557
193	0x3d79e2b0	0.0610072
194	0x3cba59d1	0.022747906
195	0x3c436e14	0.0119281
196	0xbd11bc45	-0.03557994
197	0x0020f0c1	3.025102e-39
198	0x8015f0bf	-2.014909e-39
199	0x8007dd8d	-7.22326e-40
200	0xbca85312	-0.020547424
201	0xbc3ddc42	-0.011588158
202	0x3ca60282	0.020264868
203	0x3da8f094	0.08249012
204	0x3ae0e5b3	0.00171583
205	0xbbfa62d7	-0.007641177
206	0xbcc4a1b0	-0.02400288
207	0xbcfff82a	-0.031246264
208	0xbdab651f	-0.08368897
209	0xbd08e9bd	-0.033426035
210	0x3d0de531	0.034642402
211	0x39072622	0.00012888809
212	0xbd4a3532	-0.049367137
213	0xbd38f123	-0.04515184
214	0xbd955d2d	-0.072931625
215	0x3ca90817	0.02063374
216	0x3d7e88a8	0.062142044
217	0x3d9899b9	0.07451195
218	0x3d2ad715	0.041709024
219	0x3da99b75	0.08281604
220	0x3da1d7e7	0.07902508
221	0x3dbaedfe	0.09127425
222	0x3de5e831	0.112259276
223	0x3de5b06b	0.1121529
224	0x3e2ef2ee	0.17084858
225	0xbdd416ab	-0.10355886
226	0xbd7b7242	-0.06138826
227	0xbdb604ca	-0.08887632
228	0xbd6c218e	-0.057649188
229	0xbce5b9b3	-0.02804265
230	0xbc233db9	-0.009963446
231	0xbc251a26	-0.010077035
232	0x3ca2e172	0.019882891
233	0x3b367db9	0.0027845933
234	0xbdc550a5	-0.09634522
235	0xbdef7e91	-0.116940625
236	0xbe06f520	-0.13179445
237	0xbd6ce212	-0.057832785
238	0xbcabc8eb	-0.020969829
239	0x3cfed63b	0.031108012
240	0xbd247a3e	-0.04015564
241	0xbc6c29cf	-0.014414265
242	0x3d6a77b7	0.057243075
243	0x3d9d4797	0.0767967
244	0x3cf8a50d	0.03035214
245	0xbd8a46f3	-0.06751814
246	0xbd964abe	-0.07338475
247	0xbd73b970	-0.05950302
248	0xbd4c1bc9	-0.049831185
249	0xbd30f166	-0.043198965
250	0xbdaec3fd	-0.085334755
251	0xbe05d69e	-0.13070151
252	0xbdede310	-0.11615574
253	0xbd39aa61	-0.0453285
254	0xbdee42df	-0.116338484
255	0xbc67f2ab	-0.014156978

layer2.0.bias f4 [32]
0	0x373b7d7f	1.1175288e-05
1	0x395bb7ec	0.00020953984
2	0x36e4feef	6.8246077e-06
3	0xb7afa723	-2.0939455e-05
4	0x338b59e4	6.489043e-08
5	0x35e4c6f1	1.7045223e-06
6	0x37066192	8.00974e-06
7	0xb9379f9a	-0.00017511696
8	0x35642536	8.499077e-07
9	0xb5e06014	-1.6717263e-06
10	0x372a9273	1.01668875e-05
11	0x36425dea	2.8962918e-06
12	0xb673d50b	-3.633383e-06
13	0xb6ee3871	-7.0995234e-06
14	0x3744b4db	1.1724619e-05
15	0x37ea5e75	2.7938959e-05
16	0x375da22e	1.3210387e-05
17	0xb41e36e0	-1.473486e-07
18	0xb751ea45	-1.2511916e-05
19	0xb7ad3b4f	-2.0650825e-05
20	0xb6a8502b	-5.016123e-06
21	0xb896a4c7	-7.1832495e-05
22	0xb583e0b7	-9.825661e-07
23	0xb4edb173	-4.42738e-07
24	0xb7c371b8	-2.3298766e-05
25	0xb75f45f5	-1.3308124e-05
26	0x36b44db5	5.3734643e-06
27	0x3851941e	4.9967428e-05
28	0xb70f33de	-8.5355405e-06
29	0xb7b7a12f	-2.1890357e-05
30	0x3866bdc3	5.5013003e-05
31	0xb60e186a	-2.117386e-06

layer2.1.weight f4 [32]
0	0x3f15a4a0	0.5845432
1	0x3f70af4a	0.9401747
2	0x3f2c5a71	0.673255
3	0x3f1975c6	0.59945333
4	0x3f3b82e3	0.7324659
5	0x3f1f3cf4	0.6220238
6	0x3f0bde22	0.5463582
7	0x3f6d4c2f	0.9269437
8	0x3f2818e5	0.65662986
9	0x3f2c4212	0.67288315
10	0x3f2c05cb	0.6719634
11	0x3f48db1c	0.78459334
12	0x3f383ae8	0.71964884
13	0x3f0c3582	0.54769146
14	0x3f136c36	0.5758699
15	0x3f21a58b	0.63143224
16	0x3f1e2fe7	0.61791843
17	0x3f1ef7f3	0.6209709
18	0x3f20d4ce	0.62824714
19	0x3f441e45	0.7660869
20	0x3f1e7fc8	0.6191373
21	0x3f33e0f0	0.702651
22	0x3f1d6f0f	0.61497587
23	0x3f1ce003	0.61279315
24	0x3f7441e3	0.95413035
25	0x3f3d7b93	0.74016684
26	0x3f2bd59e	0.6712283
27	0x3f2a2118	0.6645675
28	0x3f06c847	0.5264935
29	0x3f11156b	0.56673306
30	0x3f29314e	0.6609086
31	0x3f1bbc4b	0.6083419

layer2.1.bias f4 [32]
0	0xbe76bb64	-0.24094921
1	0xbc9190ca	-0.017769236
2	0xbec0f8fb	-0.37689957
3	0xbebf4ea2	-0.3736468
4	0xbe6de5a7	-0.23232137
5	0xbeb18c9b	-0.34677586
6	0xbef96ba1	-0.48714927
7	0xbb890810	-0.0041818693
8	0xbe88d405	-0.26724258
9	0xbed92e9b	-0.4241837
10	0xbe4483ef	-0.19190954
11	0xbe5e8dff	-0.21733855
12	0xbe6163a9	-0.22010674
13	0xbe55452c	-0.20827168
14	0xbe8a6aef	-0.2703471
15	0xbeac5447	-0.3365805
16	0xbe7bf348	-0.24604523
17	0xbea9d4dd	-0.33170214
18	0xbe59a087	-0.21252643
19	0xbe4ad9bb	-0.1980962
20	0xbe533378	-0.20625103
21	0xbea803ef	-0.328155
22	0xbe8854cb	-0.26627192
23	0xbe8c1337	-0.2735841
24	0xbd579cc4	-0.052639738
25	0xbeb747cc	-0.35796964
26	0xbe8c9938	-0.27460647
27	0xbe86662b	-0.26249823
28	0xbef367de	-0.47540182
29	0xbeae65f3	-0.34062156
30	0xbe9376f8	-0.28801703
31	0xbe8ad84b	-0.27118143

layer2.1.running_mean f4 [32]
0	0xc0660b0c	-3.5944242
1	0xc183822c	-16.43856
2	0x411fb7cb	9.982371
3	0xc0b7803b	-5.734403
4	0xc0850cbf	-4.157806
5	0xc09ba233	-4.8635497
6	0xc05d3e87	-3.4569414
7	0xc1b68266	-22.813671
8	0x40e6e590	7.215523
9	0x3f226dbc	0.6344869
10	0x4089f1eb	4.310781
11	0xc062043b	-3.5315082
12	0x40870a39	4.219998
13	0xc0344a8d	-2.8170502
14	0xc07db8f0	-3.9644127
15	0x40a07cb8	5.0152245
16	0xc1217f55	-10.093587
17	0xc0ad7237	-5.4201922
18	0xc0c19bd8	-6.050274
19	0xc1586822	-13.525423
20	0xc105539d	-8.332913
21	0x40dac7bf	6.836883
22	0x3faa43b9	1.3301917
23	0x402c8fef	2.696285
24	0xc14243b1	-12.141526
25	0xc0f594b3	-7.6744018
26	0xc133dc37	-11.241263
27	0xc11ffee9	-9.999734
28	0xbfe30dc8	-1.7738581
29	0xc0e3ae23	-7.115007
30	0xc15d8bc3	-13.8466215
31	0x4090a786	4.5204496

layer2.1.running_var f4 [32]
0	0x418644ce	16.783596
1	0x41ce662b	25.799887
2	0x41231b8f	10.194228
3	0x411d7fa1	9.843659
4	0x41a5a006	20.703136
5	0x417bf2f9	15.7468195
6	0x410baf8d	8.730359
7	0x41e0d171	28.102266
8	0x411f97a6	9.974524
9	0x41996a35	19.176859
10	0x41b14956	22.160809
11	0x41841008	16.507828
12	0x414901a0	12.562897
13	0x419e1aae	19.763027
14	0x40ff5240	7.9787903
15	0x415067c5	13.025334
16	0x416442fa	14.266352
17	0x413aa3f0	11.665024
18	0x41928dca	18.319233
19	0x41b4b1ce	22.586819
20	0x41d6e62a	26.862385
21	0x4101af7d	8.105344
22	0x4170cbab	15.049724
23	0x4136879a	11.408106
24	0x42039e40	32.90454
25	0x416d994c	14.849926
26	0x4182fa49	16.37221
27	0x41585677	13.52111
28	0x41127368	9.153175
29	0x41221ebf	10.132506
30	0x414d6c70	12.838974
31	0x42024efa	32.577126

layer3.0.weight f4 [32, 224]
0	0x3c204438	0.00978189
1	0x3d443093	0.047897886
2	0x3c521589	0.012822517
3	0x3da70c6f	0.081566684
4	0x3cd13d3f	0.0255419
5	0x3de09037	0.10965007
6	0x3e012b54	0.12614185
7	0x3e09c022	0.13452199
8	0xbdbe4bbf	-0.09291791
9	0xbd529b78	-0.051417798
10	0xbd58d5f8	-0.05293843
11	0xbddac06f	-0.10681235
12	0x3ce87620	0.028376639
13	0x3d3646c9	0.0445011
14	0xbdaad114	-0.0834066
15	0xbd945f9c	-0.072447985
16	0xbd6b77f0	-0.05748743
17	0xbe11eb00	-0.14249802
18	0xbdaf1757	-0.085493736
19	0xbdbd8e55	-0.09255663
20	0xbda99401	-0.08280183
21	0x3dee8313	0.11646094
22	0xbd79753e	-0.060902826
23	0xbd799f04	-0.060942665
24	0xbd2bcf25	-0.041945595
25	0xbca6ce5b	-0.02036207
26	0x3c964664	0.018344112
27	0xbe5aebcb	-0.2137901
28	0xbd925078	-0.071442544
29	0x3c96e211	0.018418344
30	0xbd805057	-0.062653236
31	0xbc4b6558	-0.012414299
32	0xbd2a0083	-0.041504394
33	0xbc39c9d2	-0.011339622
34	0x3d5777d2	0.052604504
35	0x3c8911e7	0.01673217
36	0xbc542031	-0.012947128
37	0x3d335317	0.043780413
38	0x3cd9a044	0.026565678
39	0x3d3901fe	0.045167916
40	0xbd567e6c	-0.05236666
41	0x3cda85c3	0.02667511
42	0x3dbab883	0.09117224
43	0x3cc74dae	0.024329033
44	0x3d62790a	0.055291213
45	0xbcb4b8fe	-0.022060867
46	0x3b378754	0.0028004246
47	0x3d222f14	0.03959568
48	0x3d47c7fe	0.04877471
49	0x3d5d9fea	0.054107584
50	0x3d65e8a5	0.05613007
51	0x3d1d4ea3	0.038405072
52	0x3ddc6ed3	0.107633255
53	0x3d32e825	0.04367842
54	0x3c22bed8	0.009933196
55	0x3cbd6828	0.023120955
56	0xbb3b6434	-0.0028593661
57	0xbd9c2671	-0.076245196
58	0xbda72195	-0.08160702
59	0xbe01d7f1	-0.12680031
60	0xbe0f4c21	-0.13993885
61	0xbe39eac8	-0.18155968
62	0x3d389f7f	0.045073982
63	0xbda7a990	-0.08186638
64	0xbdd7ed6b	-0.10543331
65	0xbc8de80e	-0.017322566
66	0xbc8410d7	-0.016121311
67	0xbca184b1	-0.019716593
68	0x3da80859	0.08204717
69	0x3cf81b76	0.030286532
70	0xbe054cc2	-0.13017562
71	0xbe1e2cb4	-0.1544674
72	0xbde9762b	-0.11399492
73	0xbdab6b25	-0.083700456
74	0xbd51b994	-0.05120237
75	0xbcb8b1ee	-0.022545781
76	0xbd4e0f3a	-0.05030749
77	0x39b4b5b9	0.0003446767
78	0xbcaf8ce9	-0.021429496
79	0xbdc41cd5	-0.09575812
80	0xbe001069	-0.1250626
81	0xbe06d371	-0.13166596
82	0xbe1792ef	-0.14802144
83	0xbe17696b	-0.14786308
84	0x3c1aad18	0.009440683
85	0x3c142645	0.009042327
86	0x3cc80b08	0.024419323
87	0xbd333a3e	-0.043756716
88	0xbd2a040c	-0.041507766
89	0xbe06fb88	-0.13181889
90	0xbe317554	-0.17329913
91	0xbddb1af1	-0.10698498
92	0xbd6ee143	-0.058320295
93	0x3d59affb	0.053146344
94	0x3e6137df	0.2199397
95	0x3ea4bf8f	0.32177398
96	0x3ea6bdd9	0.32566717
97	0x3e0e449f	0.13893364
98	0xbe0d3b9b	-0.13792269
99	0xbe32f131	-0.1747482
100	0xbde7a5ad	-0.11310897
101	0x3d8cf02f	0.06881749
102	0x3b7fdc21	0.003904112
103	0xbdb4199a	-0.087939456
104	0x3e186922	0.14883855
105	0x3d0b602e	0.03402727
106	0xbd831053	-0.06399598
107	0xbe05682f	-0.13028024
108	0xbe12863e	-0.14309022
109	0xbd5921d3	-0.053010773
110	0xbdd6be7e	-0.10485552
111	0xbc8b2dee	-0.016989674
112	0x3ce2ae76	0.02767108
113	0xbc438194	-0.011932749
114	0xbc158fc7	-0.0091285175
115	0xbdcce421	-0.1000445
116	0xbd8a8f9b	-0.06765672
117	0xbddeede2	-0.10885216
118	0xbcf0081a	-0.029300738
119	0xbd6b251d	-0.05740844
120	0xbceec75b	-0.029147794
121	0xbdad6fce	-0.08468591
122	0xbda53e22	-0.080684915
123	0xbdd5128f	-0.104039304
124	0xbdae3e6a	-0.08507998
125	0xbd27b8dc	-0.04094778
126	0xbdbb6632	-0.091503516
127	0xbdee1498	-0.11625022
128	0xbe813460	-0.2523527
129	0xbdd95b97	-0.106131725
130	0xbd3c86f8	-0.046027154
131	0x3c9246c3	0.017856007
132	0xbc23e074	-0.010002244
133	0xbdbfaa60	-0.09358668
134	0xbd43554c	-0.047688767
135	0x3d42575f	0.047446605
136	0xbd07461e	-0.033025853
137	0xbd793b92	-0.060847826
138	0xbb8fd231	-0.0043890704
139	0xbdb8b089	-0.090180464
140	0xbcda71bd	-0.026665563
141	0xbddca448	-0.10773522
142	0xbe302f29	-0.1720549
143	0xbddcd9cf	-0.10783731
144	0xbbf74528	-0.007546086
145	0xbd8fbe27	-0.070186906
146	0xbe0a31ed	-0.13495608
147	0x3d0159cc	0.031579778
148	0xbdacc0bd	-0.084351994
149	0xbc919351	-0.017770441
150	0x3be8f29b	0.007108999
151	0x3d34b2cc	0.044115826
152	0x3cd48e3d	0.02594673
153	0xbe041545	-0.12898739
154	0xbdca5eae	-0.0988134
155	0xbd9712e1	-0.07376648
156	0xbe10ab5c	-0.14127868
157	0xbe081a36	-0.13291249
158	0xbe7e9677	-0.24862085
159	0xbe73e17c	-0.23816484
160	0xbe996468	-0.29959416
161	0xbcd627e9	-0.026142078
162	0xbdc7f4ef	-0.09763514
163	0xbe2ba815	-0.16763337
164	0xbe30dbcf	-0.1727135
165	0xbdc71324	-0.09720448
166	0xbe01e05c	-0.12683243
167	0xbe782ada	-0.24235097
168	0x3e1175fa	0.1420516
169	0x3cc10c98	0.023565575
170	0x3d4e29ec	0.05033295
171	0xbbcaf759	-0.006194037
172	0xbd9bf369	-0.07614786
173	0x3ca4a799	0.020099448
174	0x3e035905	0.12826927
175	0xbd632068	-0.055450827
176	0xbc11d073	-0.008899796
177	0xbde4e4e3	-0.11176469
178	0xbd898db1	-0.067164786
179	0xbd015fd8	-0.031585544
180	0x3d240b93	0.0400501
181	0xbd42f347	-0.04759529
182	0xbd5a4673	-0.05328984
183	0x3d837e54	0.064205796
184	0x3d812e98	0.06307715
185	0x3d273b0d	0.0408278
186	0x3defbb86	0.11705689
187	0x3e31612e	0.17322227
188	0x3d9aded0	0.07562029
189	0xbdeb45fb	-0.11487957
190	0xbd995f81	-0.07488919
191	0xbdcb0f28	-0.09915
192	0xbbeb2be7	-0.0071768644
193	0x3c3c3975	0.011488308
194	0x3ba5b014	0.0050563905
195	0x3da8879a	0.08228989
196	0x3daab9e2	0.083362356
197	0xbb942242	-0.0045206854
198	0xbd8e25c3	-0.06940796
199	0xbd439051	-0.047745053
200	0xbd0794f2	-0.03310103
201	0xbd72db36	-0.059291087
202	0x3d8c117f	0.068392746
203	0x3e321198	0.17389524
204	0x3d97ffcd	0.07421837
205	0x3d9de2d7	0.07709282
206	0xbb1f2f8b	-0.0024289812
207	0xbcb4bd86	-0.022063028
208	0xbd97be15	-0.07409302
209	0x3dbcb0eb	0.09213432
210	0xbdcafee2	-0.09911896
211	0xbddb3c43	-0.107048534
212	0xbd9771ab	-0.07394727
213	0xbd22ef5d	-0.039779056
214	0xbe320c74	-0.17387563
215	0xbe8dd890	-0.27704287
216	0xbdfe8847	-0.124283366
217	0x37830222	1.561741e-05
218	0xbd0533a9	-0.03251997
219	0xbc4f22f8	-0.012642615
220	0xbd89c248	-0.06726509
221	0xbc34f190	-0.011043921
222	0xbb72aeae	-0.0037030387
223	0xbd018b27	-0.031626847
224	0x3def508d	0.11685286
225	0x3d98c763	0.07459905
226	0x3d654c96	0.05598124
227	0x3d60ae5d	0.054853786
228	0x3c8df712	0.017329726
229	0x3d067c38	0.032833308
230	0x3e04ef96	0.1298202
231	0x3db95665	0.090496816
232	0xbca3c5fc	-0.019991867
233	0xbca86e65	-0.020560453
234	0x3c97a961	0.018513383
235	0x3c1a9a14	0.009436149
236	0xbd3f8d24	-0.04676546
237	0x3d32cbda	0.04365144
238	0xbc9f1fa2	-0.019424263
239	0xbc12b02e	-0.008953137
240	0xbc3da6c3	-0.011575404
241	0xbb8a24a3	-0.004215793
242	0x3cb38687	0.021914734
243	0x3cf6aeb4	0.030112602
244	0xbcdf5444	-0.02726186
245	0xbdcf2579	-0.10114569
246	0xbd0d9495	-0.034565527
247	0xbd5d0118	-0.05395612
248	0xbcca22b9	-0.02467476
249	0xbb83620b	-0.0040094904
250	0xbcf5b147	-0.029991759
251	0xbc80b1a3	-0.015709704
252	0xbc8ea356	-0.017411869
253	0xbc6f0c56	-0.014590343
254	0x3c7868ad	0.015161675
255	0x3cd51075	0.026008824

layer3.0.bias f4 [32]
0	0x3e4cbc76	0.19993767
1	0x3df64b80	0.12026119
2	0xbccb43e1	-0.02481264
3	0x3db25c14	0.08708969
4	0x3a98a747	0.0011646532
5	0xbc0a419e	-0.008438496
6	0x3dd51d67	0.10405999
7	0xb977818b	-0.00023604014
8	0x3cb35f3c	0.021895997
9	0x3e48c1ad	0.19605131
10	0xb634c05f	-2.6934065e-06
11	0x3e48eb12	0.19620922
12	0x3de41f7f	0.1113882
13	0x3e2616c8	0.16219628
14	0xbc1cee8c	-0.009578358
15	0x3e3f80df	0.18701504
16	0x3e05bccb	0.130603
17	0x3e610dac	0.21977872
18	0xbb44f084	-0.0030050585
19	0xbb32a9e4	-0.0027261907
20	0xbb7d6f65	-0.0038671133
21	0x3e28855f	0.16457127
22	0xba47f720	-0.0007628072
23	0xbc01f872	-0.007932769
24	0x3d68761e	0.05675327
25	0xbbd30ea9	-0.0064409566
26	0x3cdbc65c	0.026827984
27	0xbc41a6bf	-0.0118195405
28	0x3e3e16c7	0.18563376
29	0x3e1814d7	0.148517
30	0xbba870bf	-0.0051403935
31	0xba1b1c1f	-0.0005916971

layer3.2.weight f4 [4, 32]
0	0xbb1b10af	-0.0023661067
1	0xbe0e30d8	-0.1388582
2	0xbaf81c11	-0.0018929263
3	0x3df1756f	0.11789977
4	0x3cb6ab57	0.022298498
5	0xbc3a0d86	-0.011355763
6	0xbd42c4be	-0.04755091
7	0xb7c5d056	-2.3581244e-05
8	0x3d04b08f	0.032394942
9	0xbd96f61c	-0.073711604
10	0x111a9ce5	1.2196805e-28
11	0x3dc10bd3	0.094260834
12	0x3d3054eb	0.043049734
13	0x3ca085d3	0.019595062
14	0x3d1901e8	0.037355334
15	0xbe268754	-0.16262561
16	0x3da8d236	0.082432196
17	0xbdb8d934	-0.09025803
18	0xbba61075	-0.00506788
19	0xb23c6293	-1.0965453e-08
20	0xba90ee88	-0.0011057416
21	0x3e0694bd	0.13142677
22	0x3da0ab84	0.07845214
23	0x3c24d71f	0.0100610545
24	0xbd34fbec	-0.044185564
25	0x3cfb3ded	0.030669177
26	0xbd5b1767	-0.053489115
27	0x3cd10d15	0.025518933
28	0xbd30ef85	-0.043197174
29	0x3bd33f64	0.0064467657
30	0x3c5a8f40	0.0133398175
31	0x37035251	7.827374e-06
32	0xbde096b0	-0.10966241
33	0xbdff23b9	-0.124579854
34	0x3b6e27e6	0.00363397
35	0xbb60a0a1	-0.003427543
36	0x3cef79e4	0.029232927
37	0x3a46100e	0.0007555493
38	0xbcf297f2	-0.029613469
39	0x374dd73f	1.2269068e-05
40	0xbce9026a	-0.028443534
41	0x3d5a536b	0.05330221
42	0x8002002f	-1.83737e-40
43	0x3e078252	0.13233307
44	0x3d7bfbd0	0.061519444
45	0xbdf7bc2e	-0.12096439
46	0xbd121e14	-0.035673216
47	0xbd87feea	-0.06640418
48	0x3d4597be	0.048240416
49	0x3ddeff85	0.1088858
50	0xb6b3a434	-5.3537315e-06
51	0xb10c1462	-2.0384268e-09
52	0xbab88658	-0.0014078123
53	0xbdef9e7a	-0.11700149
54	0xbda72256	-0.08160846
55	0xbc8aeecd	-0.016959572
56	0x3d895ad0	0.06706774
57	0x3d3d4ef6	0.04621788
58	0x3d3750f6	0.044754945
59	0x3bc7920e	0.006090409
60	0x3d69deda	0.057097293
61	0xbd8b8a21	-0.068134554
62	0xbca307f1	-0.019901248
63	0xb609a2ec	-2.0509424e-06
64	0xbd9a9eac	-0.075497955
65	0xbc588cf6	-0.013217201
66	0x3d609555	0.054829914
67	0xbdd492b3	-0.10379543
68	0x3beb4da6	0.0071808873
69	0x3a96395d	0.0011461187
70	0x3bd87316	0.006605516
71	0xaea1ecbc	-7.363485e-11
72	0xbd3f9637	-0.046774115
73	0xbc465b7d	-0.012106773
74	0xaa1f8090	-1.4166641e-13
75	0xbd983ac2	-0.07433082
76	0x3d22363f	0.039602514
77	0x3dafa3a1	0.085761316
78	0x3ca13084	0.019676454
79	0x3e2f3667	0.17110597
80	0xbde7aea9	-0.11312611
81	0x3df9360b	0.12168511
82	0x3a553f40	0.000813473
83	0xb90d2b39	-0.0001346291
84	0x3a008920	0.0004903246
85	0xbe005a5f	-0.12534474
86	0x3cb9742b	0.022638401
87	0xbb9b870a	-0.0047463225
88	0x3cbf60cd	0.023361588
89	0x3bf6af05	0.007528188
90	0xbd4c50d1	-0.04988176
91	0x3ba69a08	0.00508428
92	0xbd675137	-0.056473937
93	0x3c0135d0	0.007886365
94	0xbc47df9f	-0.0121993115
95	0xb81fbdc8	-3.80853e-05
96	0x3d46fac3	0.04857899
97	0x3e029bb9	0.12754716
98	0xbc8c37fd	-0.017116541
99	0x3ca2eeaa	0.019889195
100	0x3b5fe21c	0.0034161871
101	0x3ba957b0	0.005167924
102	0xbd5fdb1a	-0.05465231
103	0x3084619d	9.632007e-10
104	0xbdbc79f6	-0.0920295
105	0xbd66fe1b	-0.056394678
106	0x00066c74	5.89919e-40
107	0xbe0b9fba	-0.1363515
108	0xbd93cac6	-0.0721641
109	0x3e00d4f9	0.12581243
110	0xbd5fa780	-0.0546031
111	0x3c89d449	0.016824858
112	0xbb38611f	-0.002813406
113	0xbd9064c3	-0.07050469
114	0xb9c89d98	-0.0003826439
115	0x334293ea	4.5303672e-08
116	0xbc3ad95a	-0.01140436
117	0x3dd45fa8	0.103698075
118	0xbb9523bd	-0.0045513795
119	0x3be84797	0.0070886123
120	0x3d7c108d	0.06153922
121	0x3d4bcfcf	0.04975873
122	0x3d5f98a0	0.054588914
123	0xbd2a56ba	-0.041586615
124	0xbd85fdd2	-0.06542553
125	0x3deda040	0.11602831
126	0x3c821fd2	0.015884314
127	0x3752c211	1.256216e-05

layer3.2.bias f4 [4]
0	0x3d917176	0.07101719
1	0x3e14bf6f	0.14526151
2	0xbcd8eca2	-0.026480023
3	0xbdf8fd7a	-0.12157722
